weekly/week3/model_cb.pt (torch, 34072 bytes, 9 tensors)

beta f4 [1000]
00000000: 17b7 d138 847d fb38 f8a1 1239 2f85 2739
00000010: 6668 3c39 9c4b 5139 d22e 6639 0912 7b39
00000020: a0fa 8739 3b6c 9239 d6dd 9c39 724f a739
00000030: 0dc1 b139 a832 bc39 43a4 c639 de15 d139
00000040: 7a87 db39 15f9 e539 b06a f039 4cdc fa39
00000050: f3a6 023a c1df 073a 8f18 0d3a 5c51 123a
00000060: 2a8a 173a f8c2 1c3a c5fb 213a 9334 273a
00000070: 606d 2c3a 2ea6 313a fcde 363a c917 3c3a
00000080: 9750 413a 6489 463a 32c2 4b3a 00fb 503a
00000090: cd33 563a 9b6c 5b3a 69a5 603a 36de 653a
000000a0: 0417 6b3a d24f 703a 9f88 753a 6dc1 7a3a
000000b0: 3afa 7f3a 8499 823a eb35 853a 52d2 873a
000000c0: b86e 8a3a 1f0b 8d3a 86a7 8f3a ed43 923a
000000d0: 54e0 943a ba7c 973a 2119 9a3a 88b5 9c3a
000000e0: ef51 9f3a 56ee a13a bd8a a43a 2327 a73a
000000f0: 8ac3 a93a f15f ac3a 58fc ae3a bf98 b13a
00000100: 2535 b43a 8cd1 b63a f36d b93a 5a0a bc3a
00000110: c1a6 be3a 2843 c13a 8edf c33a f57b c63a
00000120: 5c18 c93a c3b4 cb3a 2a51 ce3a 90ed d03a
00000130: f789 d33a 5e26 d63a c5c2 d83a 2c5f db3a
00000140: 92fb dd3a f997 e03a 6034 e33a c7d0 e53a
00000150: 2e6d e83a 9409 eb3a fba5 ed3a 6242 f03a
00000160: c9de f23a 307b f53a 9717 f83a fdb3 fa3a
00000170: 6450 fd3a cbec ff3a 9944 013b cc92 023b
00000180: 00e1 033b 332f 053b 677d 063b 9acb 073b
00000190: cd19 093b 0168 0a3b 34b6 0b3b 6804 0d3b
000001a0: 9b52 0e3b cea0 0f3b 02ef 103b 353d 123b
000001b0: 698b 133b 9cd9 143b cf27 163b 0376 173b
000001c0: 36c4 183b 6a12 1a3b 9d60 1b3b d0ae 1c3b
000001d0: 04fd 1d3b 374b 1f3b 6b99 203b 9ee7 213b
000001e0: d135 233b 0584 243b 38d2 253b 6c20 273b
000001f0: 9f6e 283b d2bc 293b 060b 2b3b 3959 2c3b
00000200: 6da7 2d3b a0f5 2e3b d443 303b 0792 313b
00000210: 3ae0 323b 6e2e 343b a17c 353b d5ca 363b
00000220: 0819 383b 3b67 393b 6fb5 3a3b a203 3c3b
00000230: d651 3d3b 09a0 3e3b 3cee 3f3b 703c 413b
00000240: a38a 423b d7d8 433b 0a27 453b 3d75 463b
00000250: 71c3 473b a411 493b d85f 4a3b 0bae 4b3b
00000260: 3efc 4c3b 724a 4e3b a598 4f3b d9e6 503b
00000270: 0c35 523b 4083 533b 73d1 543b a61f 563b
00000280: da6d 573b 0dbc 583b 410a 5a3b 7458 5b3b
00000290: a7a6 5c3b dbf4 5d3b 0e43 5f3b 4291 603b
000002a0: 75df 613b a82d 633b dc7b 643b 0fca 653b
000002b0: 4318 673b 7666 683b a9b4 693b dd02 6b3b
000002c0: 1051 6c3b 449f 6d3b 77ed 6e3b aa3b 703b
000002d0: de89 713b 11d8 723b 4526 743b 7874 753b
000002e0: abc2 763b df10 783b 125f 793b 46ad 7a3b
000002f0: 79fb 7b3b ac49 7d3b e097 7e3b 13e6 7f3b
00000300: 239a 803b 3d41 813b 57e8 813b 708f 823b
00000310: 8a36 833b a4dd 833b be84 843b d72b 853b
00000320: f1d2 853b 0b7a 863b 2421 873b 3ec8 873b
00000330: 586f 883b 7216 893b 8bbd 893b a564 8a3b
00000340: bf0b 8b3b d8b2 8b3b f259 8c3b 0c01 8d3b
00000350: 25a8 8d3b 3f4f 8e3b 59f6 8e3b 739d 8f3b
00000360: 8c44 903b a6eb 903b c092 913b d939 923b
00000370: f3e0 923b 0d88 933b 262f 943b 40d6 943b
00000380: 5a7d 953b 7424 963b 8dcb 963b a772 973b
00000390: c119 983b dac0 983b f467 993b 0e0f 9a3b
000003a0: 27b6 9a3b 415d 9b3b 5b04 9c3b 75ab 9c3b
000003b0: 8e52 9d3b a8f9 9d3b c2a0 9e3b db47 9f3b
000003c0: f5ee 9f3b 0f96 a03b 293d a13b 42e4 a13b
000003d0: 5c8b a23b 7632 a33b 8fd9 a33b a980 a43b
000003e0: c327 a53b dcce a53b f675 a63b 101d a73b
000003f0: 2ac4 a73b 436b a83b 5d12 a93b 77b9 a93b
1e-04 0.00011991992 0.00013983983 0.00015975976 0.00017967969 0.0001995996 0.00021951951 0.00023943944
0.00025935937 0.00027927928 0.0002991992 0.00031911914 0.00033903905 0.00035895896 0.00037887887 0.0003987988
0.00041871873 0.00043863864 0.00045855856 0.0004784785 0.0004983984 0.0005183183 0.00053823827 0.00055815815
0.0005780781 0.00059799803 0.0006179179 0.00063783786 0.00065775774 0.0006776777 0.0006975976 0.0007175175
0.00073743745 0.00075735734 0.0007772773 0.0007971972 0.0008171171 0.00083703705 0.000856957 0.0008768769
0.0008967968 0.00091671676 0.00093663664 0.0009565566 0.00097647647 0.0009963964 0.0010163164 0.0010362363
0.0010561561 0.0010760761 0.001095996 0.001115916 0.0011358359 0.0011557557 0.0011756757 0.0011955956
0.0012155155 0.0012354355 0.0012553554 0.0012752753 0.0012951952 0.0013151151 0.0013350351 0.001354955
0.0013748748 0.0013947948 0.0014147147 0.0014346347 0.0014545546 0.0014744746 0.0014943944 0.0015143143
0.0015342343 0.0015541542 0.0015740742 0.001593994 0.0016139139 0.0016338339 0.0016537538 0.0016736737
0.0016935936 0.0017135135 0.0017334335 0.0017533534 0.0017732733 0.0017931932 0.0018131131 0.001833033
0.001852953 0.0018728729 0.0018927929 0.0019127127 0.0019326326 0.0019525526 0.0019724725 0.0019923924
0.0020123124 0.0020322322 0.0020521523 0.0020720721 0.002091992 0.002111912 0.0021318318 0.002151752
0.0021716717 0.0021915915 0.0022115116 0.0022314314 0.0022513515 0.0022712713 0.0022911911 0.0023111112
0.002331031 0.002350951 0.002370871 0.0023907907 0.0024107108 0.0024306306 0.0024505507 0.0024704705
0.0024903903 0.0025103104 0.0025302302 0.0025501503 0.00257007 0.00258999 0.00260991 0.0026298298
0.0026497499 0.0026696697 0.0026895897 0.0027095096 0.0027294294 0.0027493495 0.0027692693 0.0027891893
0.0028091092 0.002829029 0.002848949 0.0028688689 0.002888789 0.0029087088 0.0029286286 0.0029485486
0.0029684685 0.0029883885 0.0030083084 0.0030282282 0.0030481482 0.003068068 0.0030879881 0.003107908
0.0031278278 0.0031477478 0.0031676677 0.0031875877 0.0032075075 0.0032274276 0.0032473474 0.0032672673
0.0032871873 0.0033071071 0.0033270272 0.003346947 0.0033668668 0.003386787 0.0034067067 0.0034266268
0.0034465466 0.0034664664 0.0034863865 0.0035063063 0.0035262264 0.0035461462 0.003566066 0.003585986
0.003605906 0.003625826 0.0036457458 0.0036656656 0.0036855857 0.0037055055 0.0037254256 0.0037453454
0.0037652652 0.0037851853 0.003805105 0.0038250252 0.003844945 0.0038648648 0.0038847849 0.0039047047
0.0039246245 0.0039445446 0.0039644646 0.0039843842 0.0040043043 0.0040242244 0.0040441444 0.004064064
0.004083984 0.004103904 0.0041238237 0.004143744 0.004163664 0.004183584 0.0042035035 0.0042234235
0.0042433436 0.004263263 0.0042831833 0.0043031033 0.004323023 0.004342943 0.004362863 0.004382783
0.0044027027 0.0044226227 0.004442543 0.0044624624 0.0044823824 0.0045023025 0.004522222 0.004542142
0.004562062 0.0045819823 0.004601902 0.004621822 0.004641742 0.0046616616 0.0046815816 0.0047015017
0.0047214213 0.0047413413 0.0047612614 0.0047811815 0.004801101 0.004821021 0.004840941 0.0048608608
0.004880781 0.004900701 0.004920621 0.0049405405 0.0049604606 0.0049803806 0.0050003002 0.0050202203
0.0050401404 0.00506006 0.00507998 0.0050999 0.00511982 0.0051397397 0.00515966 0.00517958

alpha f4 [1000]
00000000: 72f9 7f3f 24f8 7f3f d6f6 7f3f 88f5 7f3f
00000010: 39f4 7f3f ebf2 7f3f 9df1 7f3f 4ff0 7f3f
00000020: 01ef 7f3f b2ed 7f3f 64ec 7f3f 16eb 7f3f
00000030: c8e9 7f3f 7ae8 7f3f 2be7 7f3f dde5 7f3f
00000040: 8fe4 7f3f 41e3 7f3f f3e1 7f3f a4e0 7f3f
00000050: 56df 7f3f 08de 7f3f badc 7f3f 6cdb 7f3f
00000060: 1dda 7f3f cfd8 7f3f 81d7 7f3f 33d6 7f3f
00000070: e5d4 7f3f 96d3 7f3f 48d2 7f3f fad0 7f3f
00000080: accf 7f3f 5ece 7f3f 0fcd 7f3f c1cb 7f3f
00000090: 73ca 7f3f 25c9 7f3f d7c7 7f3f 88c6 7f3f
000000a0: 3ac5 7f3f ecc3 7f3f 9ec2 7f3f 50c1 7f3f
000000b0: 01c0 7f3f b3be 7f3f 65bd 7f3f 17bc 7f3f
000000c0: c9ba 7f3f 7ab9 7f3f 2cb8 7f3f deb6 7f3f
000000d0: 90b5 7f3f 42b4 7f3f f3b2 7f3f a5b1 7f3f
000000e0: 57b0 7f3f 09af 7f3f bbad 7f3f 6cac 7f3f
000000f0: 1eab 7f3f d0a9 7f3f 82a8 7f3f 34a7 7f3f
00000100: e5a5 7f3f 97a4 7f3f 49a3 7f3f fba1 7f3f
00000110: ada0 7f3f 5e9f 7f3f 109e 7f3f c29c 7f3f
00000120: 749b 7f3f 269a 7f3f d798 7f3f 8997 7f3f
00000130: 3b96 7f3f ed94 7f3f 9f93 7f3f 5092 7f3f
00000140: 0291 7f3f b48f 7f3f 668e 7f3f 188d 7f3f
00000150: c98b 7f3f 7b8a 7f3f 2d89 7f3f df87 7f3f
00000160: 9186 7f3f 4285 7f3f f483 7f3f a682 7f3f
00000170: 5881 7f3f 0a80 7f3f bb7e 7f3f 6d7d 7f3f
00000180: 1f7c 7f3f d17a 7f3f 8379 7f3f 3478 7f3f
00000190: e676 7f3f 9875 7f3f 4a74 7f3f fc72 7f3f
000001a0: ad71 7f3f 5f70 7f3f 116f 7f3f c36d 7f3f
000001b0: 756c 7f3f 266b 7f3f d869 7f3f 8a68 7f3f
000001c0: 3c67 7f3f ee65 7f3f 9f64 7f3f 5163 7f3f
000001d0: 0362 7f3f b560 7f3f 675f 7f3f 185e 7f3f
000001e0: ca5c 7f3f 7c5b 7f3f 2e5a 7f3f e058 7f3f
000001f0: 9157 7f3f 4356 7f3f f554 7f3f a753 7f3f
00000200: 5952 7f3f 0a51 7f3f bc4f 7f3f 6e4e 7f3f
00000210: 204d 7f3f d24b 7f3f 834a 7f3f 3549 7f3f
00000220: e747 7f3f 9946 7f3f 4b45 7f3f fc43 7f3f
00000230: ae42 7f3f 6041 7f3f 1240 7f3f c43e 7f3f
00000240: 753d 7f3f 273c 7f3f d93a 7f3f 8b39 7f3f
00000250: 3d38 7f3f ee36 7f3f a035 7f3f 5234 7f3f
00000260: 0433 7f3f b631 7f3f 6730 7f3f 192f 7f3f
00000270: cb2d 7f3f 7d2c 7f3f 2f2b 7f3f e029 7f3f
00000280: 9228 7f3f 4427 7f3f f625 7f3f a824 7f3f
00000290: 5923 7f3f 0b22 7f3f bd20 7f3f 6f1f 7f3f
000002a0: 211e 7f3f d21c 7f3f 841b 7f3f 361a 7f3f
000002b0: e818 7f3f 9a17 7f3f 4b16 7f3f fd14 7f3f
000002c0: af13 7f3f 6112 7f3f 1311 7f3f c40f 7f3f
000002d0: 760e 7f3f 280d 7f3f da0b 7f3f 8c0a 7f3f
000002e0: 3d09 7f3f ef07 7f3f a106 7f3f 5305 7f3f
000002f0: 0504 7f3f b602 7f3f 6801 7f3f 1a00 7f3f
00000300: ccfe 7e3f 7efd 7e3f 2ffc 7e3f e1fa 7e3f
00000310: 93f9 7e3f 45f8 7e3f f7f6 7e3f a8f5 7e3f
00000320: 5af4 7e3f 0cf3 7e3f bef1 7e3f 70f0 7e3f
00000330: 21ef 7e3f d3ed 7e3f 85ec 7e3f 37eb 7e3f
00000340: e9e9 7e3f 9ae8 7e3f 4ce7 7e3f fee5 7e3f
00000350: b0e4 7e3f 62e3 7e3f 13e2 7e3f c5e0 7e3f
00000360: 77df 7e3f 29de 7e3f dadc 7e3f 8cdb 7e3f
00000370: 3eda 7e3f f0d8 7e3f a2d7 7e3f 54d6 7e3f
00000380: 05d5 7e3f b7d3 7e3f 69d2 7e3f 1bd1 7e3f
00000390: cccf 7e3f 7ece 7e3f 30cd 7e3f e2cb 7e3f
000003a0: 94ca 7e3f 45c9 7e3f f7c7 7e3f a9c6 7e3f
000003b0: 5bc5 7e3f 0dc4 7e3f bec2 7e3f 70c1 7e3f
000003c0: 22c0 7e3f d4be 7e3f 86bd 7e3f 37bc 7e3f
000003d0: e9ba 7e3f 9bb9 7e3f 4db8 7e3f ffb6 7e3f
000003e0: b0b5 7e3f 62b4 7e3f 14b3 7e3f c6b1 7e3f
000003f0: 78b0 7e3f 29af 7e3f dbad 7e3f 8dac 7e3f
0.9999 0.9998801 0.99986017 0.99984026 0.9998203 0.9998004 0.9997805 0.99976057
0.99974066 0.9997207 0.9997008 0.9996809 0.99966097 0.99964106 0.9996211 0.9996012
0.9995813 0.99956137 0.99954146 0.9995215 0.9995016 0.9994817 0.99946177 0.99944186
0.9994219 0.999402 0.9993821 0.9993622 0.99934226 0.9993223 0.9993024 0.9992825
0.9992626 0.99924266 0.9992227 0.9992028 0.9991829 0.999163 0.99914306 0.9991231
0.9991032 0.9990833 0.9990634 0.99904346 0.9990235 0.9990036 0.9989837 0.9989638
0.99894387 0.9989239 0.998904 0.9988841 0.9988642 0.99884427 0.9988243 0.9988044
0.9987845 0.9987646 0.99874467 0.9987247 0.9987048 0.9986849 0.998665 0.99864507
0.9986251 0.9986052 0.9985853 0.9985654 0.99854547 0.9985255 0.9985056 0.9984857
0.9984658 0.99844587 0.9984259 0.998406 0.9983861 0.9983662 0.99834627 0.9983263
0.9983064 0.9982865 0.9982666 0.99824667 0.9982267 0.9982068 0.9981869 0.998167
0.9981471 0.9981271 0.9981072 0.9980873 0.9980674 0.9980475 0.9980275 0.9980076
0.9979877 0.9979678 0.9979479 0.9979279 0.997908 0.9978881 0.9978682 0.9978483
0.9978283 0.9978084 0.9977885 0.9977686 0.9977487 0.9977287 0.9977088 0.9976889
0.997669 0.9976491 0.9976291 0.9976092 0.9975893 0.9975694 0.9975495 0.9975295
0.9975096 0.9974897 0.9974698 0.9974499 0.9974299 0.99741 0.9973901 0.9973702
0.9973503 0.9973303 0.9973104 0.9972905 0.9972706 0.9972507 0.9972307 0.9972108
0.9971909 0.997171 0.9971511 0.9971311 0.9971112 0.9970913 0.9970714 0.9970515
0.9970315 0.9970116 0.9969917 0.9969718 0.9969519 0.9969319 0.996912 0.9968921
0.9968722 0.9968523 0.9968323 0.9968124 0.9967925 0.9967726 0.9967527 0.9967327
0.9967128 0.9966929 0.996673 0.9966531 0.9966331 0.9966132 0.9965933 0.9965734
0.9965535 0.9965335 0.9965136 0.9964937 0.9964738 0.9964539 0.9964339 0.996414
0.9963941 0.9963742 0.9963543 0.9963343 0.9963144 0.9962945 0.9962746 0.9962547
0.9962347 0.9962148 0.9961949 0.996175 0.9961551 0.9961351 0.9961152 0.9960953
0.9960754 0.9960555 0.9960355 0.9960156 0.9959957 0.9959758 0.9959559 0.9959359
0.995916 0.9958961 0.9958762 0.9958563 0.9958363 0.9958164 0.9957965 0.9957766
0.9957567 0.9957367 0.9957168 0.9956969 0.995677 0.9956571 0.9956371 0.9956172
0.9955973 0.9955774 0.9955574 0.9955375 0.9955176 0.9954977 0.9954778 0.9954579
0.9954379 0.995418 0.9953981 0.9953782 0.9953582 0.9953383 0.9953184 0.9952985
0.9952786 0.9952586 0.9952387 0.9952188 0.9951989 0.995179 0.99515903 0.9951391
0.9951192 0.9950993 0.9950794 0.99505943 0.9950395 0.9950196 0.9949997 0.9949798
0.99495983 0.9949399 0.99492 0.9949001 0.9948802 0.99486023 0.9948403 0.9948204

alpha_cumprod f4 [1000]
00000000: 72f9 7f3f 96f1 7f3f 6de8 7f3f f6dd 7f3f
00000010: 30d2 7f3f 1ec5 7f3f beb6 7f3f 11a7 7f3f
00000020: 1896 7f3f d283 7f3f 3f70 7f3f 615b 7f3f
00000030: 3745 7f3f c32d 7f3f 0215 7f3f f7fa 7e3f
00000040: a2df 7e3f 03c3 7e3f 1ca5 7e3f ea85 7e3f
00000050: 7065 7e3f af43 7e3f a620 7e3f 56fc 7d3f
00000060: c0d6 7d3f e3af 7d3f c287 7d3f 5c5e 7d3f
00000070: b333 7d3f c507 7d3f 95da 7c3f 23ac 7c3f
00000080: 707c 7c3f 7c4b 7c3f 4819 7c3f d5e5 7b3f
00000090: 23b1 7b3f 357b 7b3f 0944 7b3f a10b 7b3f
000000a0: ffd1 7a3f 2297 7a3f 0c5b 7a3f be1d 7a3f
000000b0: 37df 793f 7a9f 793f 885e 793f 611c 793f
000000c0: 07d9 783f 7a94 783f bb4e 783f cb07 783f
000000d0: acbf 773f 5f76 773f e42b 773f 3de0 763f
000000e0: 6b93 763f 6f45 763f 4af6 753f fda5 753f
000000f0: 8a54 753f f101 753f 35ae 743f 5659 743f
00000100: 5503 743f 34ac 733f f453 733f 96fa 723f
00000110: 1ca0 723f 8744 723f d8e7 713f 118a 713f
00000120: 332b 713f 3fcb 703f 376a 703f 1c08 703f
00000130: f0a4 6f3f b440 6f3f 6adb 6e3f 1375 6e3f
00000140: b00d 6e3f 43a5 6d3f ce3b 6d3f 52d1 6c3f
00000150: d165 6c3f 4bf9 6b3f c48b 6b3f 3c1d 6b3f
00000160: b5ad 6a3f 303d 6a3f b0cb 693f 3559 693f
00000170: c2e5 683f 5871 683f f9fb 673f a585 673f
00000180: 600e 673f 2c96 663f 081d 663f f8a2 653f
00000190: fc27 653f 18ac 643f 4c2f 643f 9ab1 633f
000001a0: 0433 633f 8bb3 623f 3333 623f fbb1 613f
000001b0: e82f 613f f8ac 603f 3029 603f 90a4 5f3f
000001c0: 1b1f 5f3f d398 5e3f b811 5e3f cd89 5d3f
000001d0: 1501 5d3f 9077 5c3f 42ed 5b3f 2a62 5b3f
000001e0: 4dd6 5a3f ab49 5a3f 46bc 593f 212e 593f
000001f0: 3d9f 583f 9b0f 583f 407f 573f 2bee 563f
00000200: 605c 563f dfc9 553f ac36 553f c7a2 543f
00000210: 340e 543f f478 533f 08e3 523f 744c 523f
00000220: 38b5 513f 581d 513f d584 503f b0eb 4f3f
00000230: ec51 4f3f 8cb7 4e3f 911c 4e3f fd80 4d3f
00000240: d2e4 4c3f 1248 4c3f bfaa 4b3f dc0c 4b3f
00000250: 6a6e 4a3f 6bcf 493f e22f 493f d08f 483f
00000260: 38ef 473f 1c4e 473f 7dac 463f 5d0a 463f
00000270: c067 453f a6c4 443f 1321 443f 077d 433f
00000280: 85d8 423f 8f33 423f 278e 413f 50e8 403f
00000290: 0b42 403f 5a9b 3f3f 3ff4 3e3f bd4c 3e3f
000002a0: d6a4 3d3f 8bfc 3c3f de53 3c3f d3aa 3b3f
000002b0: 6a01 3b3f a657 3a3f 89ad 393f 1403 393f
000002c0: 4b58 383f 2fad 373f c201 373f 0556 363f
000002d0: fca9 353f a8fd 343f 0b51 343f 28a4 333f
000002e0: fff6 323f 9449 323f e89b 313f feed 303f
000002f0: d73f 303f 7591 2f3f dbe2 2e3f 0a34 2e3f
00000300: 0485 2d3f ccd5 2c3f 6226 2c3f ca76 2b3f
00000310: 06c7 2a3f 1717 2a3f ff66 293f c0b6 283f
00000320: 5c06 283f d555 273f 2da5 263f 66f4 253f
00000330: 8243 253f 8392 243f 6ae1 233f 3b30 233f
00000340: f67e 223f 9dcd 213f 321c 213f b86a 203f
00000350: 30b9 1f3f 9c07 1f3f fd55 1e3f 56a4 1d3f
00000360: a9f2 1c3f f740 1c3f 428f 1b3f 8cdd 1a3f
00000370: d72b 1a3f 257a 193f 77c8 183f d016 183f
00000380: 3065 173f 9bb3 163f 1102 163f 9450 153f
00000390: 269f 143f c9ed 133f 7f3c 133f 488b 123f
000003a0: 29da 113f 2029 113f 3178 103f 5dc7 0f3f
000003b0: a516 0f3f 0d66 0e3f 94b5 0d3f 3c05 0d3f
000003c0: 0955 0c3f faa4 0b3f 12f5 0a3f 5145 0a3f
000003d0: bb95 093f 50e6 083f 1237 083f 0388 073f
000003e0: 23d9 063f 752a 063f fa7b 053f b4cd 043f
000003f0: a51f 043f cc71 033f 2dc4 023f c816 023f
0.9999 0.99978006 0.9996403 0.9994806 0.99930096 0.9991015 0.9988822 0.998643
0.998384 0.99810517 0.9978065 0.9974881 0.9971499 0.996792 0.9964143 0.9960169
0.99559987 0.99516314 0.99470687 0.99423087 0.9937353 0.99322027 0.9926857 0.9921316
0.9915581 0.99096507 0.99035275 0.98972106 0.9890701 0.9883998 0.9877103 0.9870016
0.98627377 0.9855268 0.98476076 0.9839757 0.98317164 0.98234874 0.9815069 0.9806462
0.9797668 0.9788686 0.97795177 0.9770163 0.97606224 0.97508967 0.9740987 0.9730893
0.9720616 0.9710156 0.96995133 0.9688689 0.96776843 0.96664995 0.96551347 0.9643591
0.9631869 0.961997 0.9607893 0.95956403 0.9583212 0.9570609 0.9557832 0.95448816
0.95317584 0.95184636 0.9504998 0.94913614 0.9477556 0.94635814 0.9449439 0.943513
0.9420654 0.9406013 0.9391207 0.93762374 0.9361105 0.93458104 0.9330355 0.9314739
0.92989635 0.92830294 0.9266938 0.925069 0.9234286 0.92177266 0.9201014 0.91841483
0.91671306 0.91499615 0.9132643 0.91151744 0.9097558 0.9079795 0.90618855 0.904383
0.9025631 0.90072894 0.8988805 0.89701796 0.89514136 0.89325094 0.8913467 0.88942873
0.8874972 0.8855521 0.88359374 0.881622 0.87963724 0.8776393 0.8756285 0.8736048
0.8715684 0.8695194 0.86745787 0.8653839 0.86329776 0.8611994 0.859089 0.8569666
0.8548325 0.8526866 0.8505291 0.8483601 0.8461798 0.8439881 0.84178543 0.83957165
0.83734703 0.83511156 0.8328655 0.8306088 0.8283417 0.82606435 0.8237767 0.8214791
0.8191714 0.816854 0.81452686 0.81219006 0.8098438 0.8074882 0.8051234 0.80274945
0.8003665 0.7979747 0.7955741 0.79316497 0.7907473 0.7883212 0.7858869 0.7834444
0.78099394 0.7785356 0.77606946 0.77359563 0.77111435 0.7686256 0.7661297 0.7636265
0.7611163 0.7585992 0.7560753 0.7535448 0.75100774 0.7484642 0.7459144 0.74335843
0.74079645 0.7382285 0.7356547 0.7330753 0.7304903 0.7278999 0.7253042 0.7227032
0.72009724 0.7174863 0.7148706 0.71225005 0.709625 0.7069955 0.7043616 0.7017236
0.69908136 0.6964352 0.6937852 0.6911315 0.6884741 0.68581325 0.68314904 0.68048155
0.6778109 0.6751373 0.6724607 0.6697813 0.66709936 0.6644148 0.66172785 0.65903854
0.65634704 0.65365344 0.6509579 0.6482605 0.64556134 0.6428606 0.6401583 0.6374547
0.63474977 0.63204366 0.6293365 0.6266284 0.6239195 0.62120986 0.6184996 0.6157888
0.6130777 0.6103663 0.6076547 0.60494304 0.60223144 0.59952 0.59680885 0.5940981
0.59138775 0.58867806 0.58596903 0.5832608 0.5805534 0.57784706 0.57514185 0.57243776
0.5697351 0.56703377 0.564334 0.5616358 0.5589393 0.5562447 0.5535519 0.5508611
0.54817253 0.5454861 0.542802 0.5401202 0.53744096 0.5347643 0.5320903 0.5294191
0.52675074 0.52408534 0.521423 0.5187638 0.51610786 0.51345515 0.5108059 0.5081601

network.network.0.weight f4 [64, 3]
00000000: 53c8 94bd 9409 4e3e a2ed d8bf b549 d7be
00000010: 9ab1 3dbf 0a9b 57be 9853 93bb 8a53 acbe
00000020: b565 6e3f 4ff5 de3d ce25 3b3b 6737 783f
00000030: efee 03bf afc1 523f f71d 9ebe 59a0 ed3e
00000040: d93c 983e 3e34 cf3e 1749 093f 37a9 90be
00000050: 9023 49bf 0cb7 1a3f 6cec 4c3b 082c 023f
00000060: d27e b6bd d3c1 863e 0510 39bd 562e 373f
00000070: e88a b13e df70 f33e f6e3 c23d 00e8 00be
00000080: b036 3f3f 41d0 29bf 40e2 43b7 9250 8ebf
00000090: 1cd0 043c 6271 18bf 94db 403f 3f8a e43e
000000a0: a9f7 4ebf 8c36 3fbe 2af0 04bc 3473 863e
000000b0: bd02 cabf 50c7 a3b9 c2fd 1b3f 0c94 103f
000000c0: 314a ae3c 2a7c 75be f164 2abf ef2d 2fbf
000000d0: 85e3 8b3b dab9 c63e ae6e 073f ecdb 023f
000000e0: 6301 7ebf ff76 a4be 39ae 333f 2588 18bf
000000f0: 594e 123e d339 1bbe dbb2 463f 1c8d abbe
00000100: cdb8 0f3f 31b3 093e 48ae 2b3f be0f 973e
00000110: 2456 e1bd 58ac a2be c767 14be 43e3 243e
00000120: 5586 b1bb d53f 19be cb7d 3f3f e2e1 fa3e
00000130: 5ef0 113c f40c 5cbf cc33 3abf 78a6 4e3b
00000140: 942c b23e 5370 9dbe 2d39 683e 72ce cdbc
00000150: 9f09 283f 6480 823f bee3 0abf 4b83 1dbe
00000160: eaf3 243e ec05 edbf 02fc f13d e6f2 263f
00000170: 3d06 e7be bc67 f7bb e105 1d3f e0ea 0a3e
00000180: a0c5 033f f6cf 83be 896c 113f 2b80 45be
00000190: af73 d23b 3ed2 853b b127 c03e 8901 3bbf
000001a0: 50b4 2cbf 8425 7abc a459 533e 3b67 613f
000001b0: 4c34 ae3e 8d41 213e faca be3e cf3e 32bf
000001c0: d95f 993e aeeb 0ebf 8c11 22bf 0dea b03e
000001d0: 2626 423f a246 213f fc80 0c3c 587f 483f
000001e0: 4367 22be fdcf 20be 0c8e 6b3f fbf5 983e
000001f0: 7890 edbe d611 883d 696b 12bf 5fe6 933e
00000200: 3e1e 3dbf 27a5 a63e 09a5 f039 9522 503f
00000210: 21be db3d 974a 96be dea5 e43e e279 2abe
00000220: 0a80 093e c647 263f 039e 60bf 8f44 0dbf
00000230: b854 59bf 4878 cd3d bd65 efbe 2ce1 bfbe
00000240: 3d73 9e3b 097c fd3e 4f18 ea3e ae59 ba3e
00000250: 8267 053e 954c a3bf c82d d0bb cc68 653e
00000260: eead 053f 8339 f33b 6c45 34bf 2959 9a3d
00000270: d92f f33e f81a 10bf a02f 38be f246 9bba
00000280: 5f4b 603f 5f72 ad3e 867c 59bf 4b5c 023f
00000290: 2072 f3be c65a 003f b57a d2bc 4a1d 58bf
000002a0: 476b 62be 6d46 b33e 613a bb3e 6b0c af3e
000002b0: 0287 3e3f 9e7d 053f a62b 6aba ebce 0abf
000002c0: 6d26 52bf 8649 1cbf a245 2abf 89f0 c8bf
000002d0: 57bf f33e c5e8 cdbe bef8 12be bd9c bcbe
000002e0: 1395 36bd 09a0 453f 4f82 e53e 9fb1 23bf
000002f0: bca0 c53d abe5 0fbf 75e5 9ebd 1731 d83e
-0.07264771 0.20120841 -1.694752 -0.42048422 -0.74099123 -0.21055236 -0.004496049 -0.33657485
0.9312394 0.10886633 0.002855647 0.9695954 -0.5153646 0.8232679 -0.30882236 0.46411398
0.29733923 0.40469545 0.5362715 -0.282541 -0.7856989 0.6043556 0.0031268848 0.50848436
-0.08910908 0.2631975 -0.045181293 0.7155508 0.3467629 0.4754705 0.09516136 -0.12588501
0.7469282 -0.66333395 -1.1675584e-05 -1.1118338 0.008106258 -0.5954801 0.7533505 0.44636723
-0.8084665 -0.18673152 -0.0081139 0.26259768 -1.5782086 -0.00031238282 0.6093408 0.564759
0.021275612 -0.23973146 -0.66560274 -0.68429464 0.004269066 0.38813668 0.5290326 0.51116824
-0.99220866 -0.32122037 0.7018772 -0.5958274 0.142877 -0.15158777 0.7761666 -0.33506095
0.5614136 0.13447262 0.6706281 0.29504198 -0.11002758 -0.31772113 -0.14492713 0.16102318
-0.005417625 -0.14965756 0.7480132 0.4900046 0.008907406 -0.85957265 -0.72735286 0.0031532329
0.34799635 -0.3074976 0.22678061 -0.025122855 0.6563968 1.0195432 -0.54253757 -0.15382116
0.16108671 -1.8517432 0.11815645 0.65214384 -0.45121947 -0.007550208 0.61337095 0.1356616
0.51473427 -0.257446 0.56806237 -0.19287173 0.006422482 0.0040839007 0.37530282 -0.7304922
-0.67462635 -0.0152677335 0.20639664 0.8804814 0.34024274 0.15747662 0.37264234 -0.6962709
0.29955938 -0.5582837 -0.63308024 0.34553567 0.7583946 0.629984 0.008575674 0.7831931
-0.15859704 -0.15704341 0.9201362 0.29875168 -0.46399283 0.06644027 -0.57195145 0.28886697
-0.7387427 0.32547876 0.00045899328 0.8130277 0.107296236 -0.29353783 0.44657797 -0.16648057
0.1342775 0.6495327 -0.87741107 -0.5518274 -0.84894896 0.100327075 -0.46757308 -0.3747648
0.004835515 0.49508694 0.4572167 0.36396545 0.13027766 -1.2757746 -0.006353114 0.22403258
0.5221852 0.0074226274 -0.7041843 0.07536537 0.47497442 -0.5629115 -0.17986917 -0.0011846705
0.8761501 0.3387632 -0.8495563 0.5092208 -0.47548008 0.5013851 -0.025693277 -0.8441969
-0.22111236 0.35014668 0.36567977 0.34189162 0.74424756 0.521448 -0.0008932896 -0.5422198
-0.82089883 -0.6104969 -0.665125 -1.5698406 0.47606918 -0.40216652 -0.143527 -0.36838332
-0.044575762 0.7719732 0.4482598 -0.63942903 0.09649798 -0.5620982 -0.07758609 0.42224953

network.network.0.bias f4 [64]
00000000: 7246 c93e 11af 72be 5d27 113d a96d 3fbd
00000010: 4a11 9fbe 67b1 243e dd16 ba3e 1e44 0fbf
00000020: 25fe 203e 36d8 5dbe c178 9b3d c78b 1cbf
00000030: 4536 19be cec9 5e3e 5c4a 1f3f 69b3 fdbd
00000040: 043f cf3e 24c9 1abf c8ab e4be 428a 203e
00000050: 39ee e33d 8093 373e 3840 103e 34f1 173f
00000060: ba48 13be b9dc 093f 4d2b 1cbe 8f19 d53e
00000070: d7de aebe ad5f 4c3e d867 3cbd d785 0ebf
00000080: 50e7 b9be 3662 103f 692f d43d acb1 9fbe
00000090: 4e6d 68be 93a8 25be 3508 1d3e 162a 15be
000000a0: e061 043e 3ddc b33e 207a fc3e 0cac babd
000000b0: 5b38 3ebe 3d81 033e f3b4 80be 0d7e 84be
000000c0: a835 e83e b9ac e43d 0ad7 76bd a76b 15be
000000d0: c3d1 09bf d56e 41be e485 88be 03ef 46bd
000000e0: 8583 d83d e163 1dbe 9fe9 fcbe 504e 0cbf
000000f0: 4af9 c13e 71a3 003f a0d4 053f 4d45 eb3e
0.39311558 -0.23699595 0.03543793 -0.04673544 -0.31067878 0.16083299 0.36345568 -0.55963314
0.15721948 -0.21664509 0.07591391 -0.61150783 -0.14962108 0.2175667 0.6222284 -0.123877354
0.40477765 -0.60463166 -0.4466231 0.15677741 0.11129422 0.1792736 0.14086998 0.5935242
-0.14383212 0.5385242 -0.15250893 0.41621062 -0.34154388 0.19958372 -0.04599747 -0.55672973
-0.3630929 0.5639986 0.10360605 -0.3119024 -0.22697946 -0.16177587 0.15335162 -0.14566836
0.12927961 0.35128966 0.49311924 -0.091148466 -0.18576185 0.12842269 -0.25138053 -0.2587742
0.45353436 0.11165757 -0.06026367 -0.14591847 -0.53835696 -0.18889935 -0.2666465 -0.048567783
0.1057196 -0.15370132 -0.4939699 -0.54806995 0.37885505 0.5024939 0.52277565 0.4595131

network.network.2.weight f4 [64, 64]
00000000: ac2d 9e3e 1dec 8abd b73c 6abd fb88 0dbe
00000010: d1b3 353f f0fe 61be e610 a43c 1543 16bd
00000020: 43a3 8d3e 95da b33e efe0 8f3a fc4f 97bd
00000030: 0059 873e 64b0 a63d 0bb8 093e 3b00 e3be
00000040: cc17 8dbd 39e2 1c3e bf8c 13bf ad61 2abe
00000050: 321c fa3c fcec 8dbe f5b3 50be 871a d2ba
00000060: 0336 ce3e 98f8 ff3d 4af0 333d 9a41 0c3e
00000070: e71a 2f3f 22f3 cd3e 16d0 7d3d 20a2 27c0
00000080: 22da 1bbe 1437 603d 2732 02bd 1069 2dbe
00000090: 44fb 87be dfee 1a3e cf68 64be 6251 23be
000000a0: 89bd 1cbe d7b3 293b f943 533e 4a01 99bc
000000b0: 69dd 843e 9701 b5bd 5d39 06be 0cf8 28be
000000c0: a17d d3bd 8a78 893d 6566 09bf a345 b73d
000000d0: 4f7d 673d ece4 2ebf 40bc f73d ab92 dbbd
000000e0: edec 67be 3d0e d13e 1c6c 003f a492 9d3d
000000f0: 7e34 88bd 38d0 11be 8951 05be 8749 17bd
00000100: 4d96 b23d def0 34be 3f4c 153e ab5b 1f3f
00000110: 80ab e1bd 8d27 1abd 6f98 d1bd 5b18 2ebe
00000120: 3f35 e23d e919 963c 6c9c d73d 1472 fd3e
00000130: 4741 4c3e 1220 16be ad08 efbd c49c acbd
00000140: 0985 07be ae38 ac3e 5bf9 4f3f a2b4 b5bd
00000150: 7f3b a43b b020 5fbd b468 d9bd 126a 2d3d
00000160: 85e7 7b3d a5f6 e5be 067f 843e c068 033e
00000170: 9cb7 74be feb3 b6bd b604 71be 416b 893d
00000180: b3e9 18bf 1c59 973c 93b4 5fbe 3783 ce3d
00000190: 634f 8cbc 8d27 6a3e 0343 903e 018c 333e
000001a0: 3890 4f3e afad 033e 283a d8bd 4437 373e
000001b0: c852 28be 2cc5 333e 3933 813d b34b 95bc
000001c0: 22b3 d9bb 61fb b0bd 0dd7 1b3d 4cc0 3b3e
000001d0: b144 a23e 763e a43c f0b4 883e b81e 813f
000001e0: 0358 9d3d 3974 39bd 63e7 87bc 813a c63e
000001f0: a48d 9ebd 9bfa 393e f598 c9bd 01c2 f33d
00000200: dc64 983d dc67 0abe ce39 68ba 89b2 563e
00000210: 0c7f 80bc 6cfe 873d 34c9 073e 9dad 1cbd
00000220: 241a 50bc dd36 593d 8896 6b37 ef84 5b3e
00000230: e274 623d e241 94bd 4b56 eb3d 247b 123d
00000240: fae2 b13d 0bba 0ebc 0b8a ddbe 1e86 9f3d
00000250: f93e 433d 8516 4a3d 2876 753d 74a0 ce3d
00000260: fec6 643d d8d9 443d 481d 423e d136 1ebd
00000270: a418 babd 089e 793e 2ee9 193e ac2d 753e
00000280: 0410 8dbd ba89 903d 7286 023e 6c20 273e
00000290: ef71 35bd ff79 413d b693 923b ae1c 2ebb
000002a0: 189b 49bd 53f4 243e bf9f 6bbd 70b4 a9bd
000002b0: a2cc 203e 51c5 913c c4a0 6fbd 9e22 8c3d
000002c0: 8a2c 0bbe c8a5 08be 46c6 b83d 5caf 12bd
000002d0: cb66 22bf 278b b03d a8b7 83bd 955f 9dbe
000002e0: f45e e33d aab5 403c e13d 16bf 5ff6 94bd
000002f0: b0a3 303d e694 a73d 50f9 ea3d 6a53 39bc
00000300: 4105 09bd de88 c9bd a789 9fbe eb78 94bf
00000310: a19c 1c3f c09a b73d 65db 78bd 6fa0 663e
00000320: 0a58 323e 1ebc fdbd 21aa 94be 493c 2abf
00000330: 17d6 3dbd c25a 5b3e b07e 203d 194e 0ebe
00000340: 25e3 793e 8d4e cabe f980 6dbe 11ce b1be
00000350: 5dfc 99be 41d7 4ebe 0383 72bc 994e ff3c
00000360: 23b1 f63d db5f 363e 5516 5cbf 7855 633e
00000370: 75ce 0a3d a867 eebe 89f6 23be af60 febe
00000380: 5c2c 513e 301f 0d3e 812e 133e a969 123f
00000390: aa8b 71be 2830 e63e 0e33 72be 3718 853e
000003a0: af20 e8bd c80b 20be 0028 0e3e 61a8 313c
000003b0: 4d25 183e e71b 9f3c 5474 8d3e 6a15 3b3d
000003c0: b21b 96bc 596f c33d c782 ae3d 7145 643e
000003d0: 2831 663d 27b4 70be 04cd a93e e2b5 4b3e
000003e0: 9342 26be b434 813e 1561 b53e bfdd 7f3d
000003f0: b5f8 8cbd ea4a 3bbc 00a5 87be ef50 373e
0.3089422 -0.06783316 -0.05718681 -0.13821785 0.70977503 -0.22069907 0.020027589 -0.03668507
0.2766362 0.35127702 0.001097707 -0.07388303 0.2643509 0.081391126 0.13449113 -0.44336113
-0.068893045 0.15320672 -0.57636636 -0.16638823 0.030531023 -0.27719867 -0.20381148 -0.0016029634
0.40275583 0.12498587 0.04393033 0.136969 0.68400425 0.40224558 0.061966024 -2.6192703
-0.1521993 0.054740027 -0.03178611 -0.1693461 -0.26558888 0.15130185 -0.22305606 -0.15949014
-0.15306677 0.0025894546 0.20631398 -0.018677372 0.25950173 -0.08838194 -0.1310782 -0.16500872
-0.10326696 0.06712444 -0.53671867 0.08948829 0.056515988 -0.6831806 0.12096453 -0.10721334
-0.22648974 0.40831175 0.5016496 0.07693985 -0.06650637 -0.14239585 -0.13019384 -0.036935356
0.08720074 -0.17670009 0.14579867 0.6224925 -0.11019039 -0.037635375 -0.102341525 -0.17001478
0.11045312 0.018322902 0.10527882 0.49501097 0.19946776 -0.14660671 -0.11671577 -0.08428338
-0.13234343 0.33636993 0.8123986 -0.088723436 0.0050119753 -0.054474533 -0.10615674 0.042337485
0.06150009 -0.44914737 0.2587816 0.12832928 -0.23898166 -0.089210495 -0.23536953 0.0670991
-0.59731597 0.018475108 -0.21846227 0.10083621 -0.017127698 0.2286665 0.28176126 0.17533876
0.20269859 0.12859224 -0.105579674 0.17892176 -0.16437829 0.17555684 0.06308598 -0.018224573
-0.0066436687 -0.08641697 0.038046885 0.18335074 0.31693032 0.020049315 0.26700544 1.00875
0.076828025 -0.045276854 -0.016589826 0.3871651 -0.077418596 0.18162005 -0.09843627 0.11902238
0.074411124 -0.13516182 -0.0008858711 0.20966543 -0.01568558 0.06640324 0.13260347 -0.038251508
-0.012701545 0.053030837 1.404214e-05 0.21437429 0.05528725 -0.07239129 0.114910685 0.035761967
0.086858705 -0.008711348 -0.4326938 0.07789253 0.047667477 0.049337883 0.059927136 0.10089198
0.055853836 0.048059314 0.18956482 -0.038626496 -0.09086731 0.2437669 0.15030357 0.23943204
-0.0688782 0.07057519 0.127466 0.16320962 -0.04429811 0.047235485 0.004473175 -0.0026567387
-0.049220175 0.16108827 -0.057525393 -0.08286369 0.15703061 0.017794283 -0.058502927 0.0684254
-0.13591209 -0.1334449 0.09022193 -0.035811767 -0.634381 0.08620291 -0.06431514 -0.30736986
0.11102095 0.011762062 -0.5868817 -0.07273554 0.043124855 0.08182697 0.11473334 -0.011311391
-0.033452276 -0.098405585 -0.31159708 -1.1599401 0.61176497 0.08965063 -0.060756106 0.22522138
0.17416397 -0.12389396 -0.29036048 -0.6649824 -0.04634675 0.2142134 0.03918332 -0.1389698
0.24403055 -0.39513054 -0.2319373 -0.3472753 -0.3007535 -0.201993 -0.014801743 0.031165408
0.12045505 0.17810003 -0.85971576 0.22200572 0.0338883 -0.46563458 -0.16012014 -0.4968314
0.20427078 0.13781428 0.14373209 0.57192475 -0.23588434 0.44958615 -0.23652288 0.25995037
-0.11334359 -0.15629494 0.13882446 0.010843367 0.14857979 0.019422485 0.27627814 0.04567472
-0.018323753 0.09542722 0.085210375 0.22292115 0.056199223 -0.23506223 0.33164227 0.19893602
-0.16236334 0.25235522 0.3542563 0.062467333 -0.068833746 -0.011431435 -0.26493073 0.17901967

network.network.2.bias f4 [64]
00000000: f357 bd3d dd2c ba3d 424d 893d a4a6 b83c
00000010: e109 19bd 5e16 813d acb8 f53d 776b 193d
00000020: 0978 9ebd 5349 0a3d 6c0d 98bd 5a09 cd3d
00000030: 6da3 b83c b612 253e 3521 b43d eda5 c73d
00000040: 9cc8 d13d b667 20be fea7 493b f1f4 643c
00000050: ff7a f93d ba4e 0e3e bdb6 e0bd 7789 0fbe
00000060: 4f32 983d 9472 8dbd 8190 8dbc 12d5 f53c
00000070: 6171 cc3c 2c01 fdbd 08c1 bcbd 166b 02be
00000080: d373 41bd c1cf 893c 852c 8bbd 860c 863d
00000090: 42bd 2dbe 55d3 86bd 4c54 9d3d f826 9a3d
000000a0: f1d2 fdbd 061a 8d3d 05da 72bd 5cdc fb3d
000000b0: 1a5a 583c 8908 973d 61b7 1fbe 10b4 393c
000000c0: 0374 613d 9d67 883d a3c4 2b3e 8626 b93d
000000d0: 40c1 9dbb 3a71 353d 41e8 1b3e 8e27 813d
000000e0: 014b eb3d 3f01 82bd 9d0d b03d 6f03 fbbc
000000f0: 6e5a ebbd d368 eebd f349 31bd 9270 923c
0.092452906 0.09090588 0.06704189 0.022540398 -0.037362937 0.06303094 0.11998114 0.037456002
-0.07737739 0.033761334 -0.07424435 0.10011549 0.022538865 0.16120419 0.08795396 0.09748445
0.10243341 -0.15664563 0.0030770297 0.013974414 0.12181663 0.1389722 -0.109723546 -0.14017282
0.074314706 -0.0690662 -0.017280819 0.030008826 0.024956407 -0.12353739 -0.09216505 -0.12736163
-0.0472296 0.016822698 -0.06795601 0.065453574 -0.16966727 -0.06583277 0.07682094 0.07526964
-0.123937495 0.06889729 -0.05928995 0.122978896 0.013205076 0.07374675 -0.15597297 0.011334434
0.055042278 0.06660388 0.1677423 0.09040551 -0.004814297 0.044297434 0.15225317 0.063063726
0.11488915 -0.06347894 0.085963465 -0.030641286 -0.114918575 -0.116410874 -0.043283414 0.017875943

network.network.4.weight f4 [2, 64]
00000000: d2fa 9bbe ccde 06bf 4a94 08be 525e 903f
00000010: e259 a6bd f7f5 a3be 063e e7bd 99ec 173e
00000020: ccea aabc 3e22 e93d 3968 683e 637f 333b
00000030: 5603 80be 45c5 1ebe 2caf 733e 810b 333e
00000040: 61e5 753e bc37 3d3e 1fc8 4fbf 49de f53e
00000050: 4aa2 283e e96f 2ebe 562a 7f3e 78a4 b2bd
00000060: 8998 473d 98e6 dfbd da24 973e 1b35 82be
00000070: 06af f6bc e41a fabd 215e a1bc 9475 89be
00000080: 6f25 8cbd 8d9a 633e dbca 79bd 8f71 303f
00000090: c60c cbbe 2055 2a3e bc36 9abd 70cc c2bc
000000a0: 439a 8d3d ffdd d2bd 758b 10be d84b 3a3e
000000b0: 0247 c9bd 6382 8dbe adb6 903e 70f1 f33d
000000c0: 2471 6dbf 7b8c 52be a870 d8bd b484 4bbe
000000d0: b75b 293d e436 81be 88b2 103c 9217 2c3e
000000e0: 7c52 473f 9823 543f cf7d 833d 6dfb efbd
000000f0: f03e 4dbd 15f3 8fbe 26e5 3b3e 8cb0 97bd
00000100: 35ad 82bf 7950 3cbe a160 b83d dc9c b1bf
00000110: 0209 c8be 8325 62bc 86b9 b6be 9ab9 043e
00000120: 1764 cb3e cccd 45be ec1e dc3e 04cc 23be
00000130: 9a3a 813e 60e1 7bbe 1e90 96bc 0c14 e73d
00000140: 492f f7bd bb85 433f 5719 063c 8ccf 3a3e
00000150: da8f 26be 1a4d 42be 09e5 783e 4934 79bd
00000160: 9e41 ae3e c083 753b ec72 5f3d 4fe6 04be
00000170: 01a9 363c 4694 93bd 6d87 49be 0e4d 213e
00000180: db06 6dbd 0067 46be acc9 0c3f 9e17 813f
00000190: e395 0d3e a674 09be 7b62 183e da7c 993d
000001a0: 56e0 4bbd bb8f ccbe 34c2 2e3e 1ce3 b83d
000001b0: d98e 0d3d 6463 553e 7ae0 b4bc de51 93bd
000001c0: bfc4 03bf 5de3 54be db94 51be 3821 2e3e
000001d0: 3f8e df3d 7a1f 67bb 0a45 84be 6633 34be
000001e0: 0b19 a2be 9c5e 563d d5c6 69be 28b4 3d3e
000001f0: 04d8 d3bd 8ce4 9f3c cd86 363e 42d7 9e3e
-0.30464798 -0.5268371 -0.13337818 1.1278784 -0.081226125 -0.32023594 -0.11291127 0.14836349
-0.020863913 0.11383484 0.22696008 0.002738916 -0.25002545 -0.1550494 0.23797292 0.17484857
0.24013282 0.18478292 -0.81164736 0.48021153 0.16468158 -0.17034878 0.24918494 -0.08722776
0.048729453 -0.10932654 0.29520303 -0.2543114 -0.030112755 -0.1221216 -0.019698204 -0.26847517
-0.068430774 0.22226925 -0.060984474 0.68923277 -0.39658183 0.16634035 -0.07529971 -0.023779124
0.06914189 -0.10296249 -0.14115699 0.18192995 -0.09827997 -0.2763854 0.2826437 0.11911285
-0.92750764 -0.20561402 -0.105683625 -0.19874841 0.04134723 -0.2523719 0.008831628 0.16805866
0.77860236 0.8286681 0.064204805 -0.117178775 -0.05010885 -0.28115144 0.18349132 -0.074067205
-1.0209109 -0.18390073 0.090028055 -1.3875995 -0.39069372 -0.013802889 -0.35688418 0.12961426
0.397248 -0.19316787 0.42992342 -0.15995795 0.25240022 -0.24597692 -0.018379267 0.112831205
-0.12069566 0.7637593 0.008184752 0.18243235 -0.16265813 -0.18974724 0.2430612 -0.06084088
0.34034437 0.0037462562 0.054552957 -0.12978481 0.011148692 -0.07206015 -0.19680567 0.1575205
-0.057867866 -0.19375229 0.54995227 1.0085332 0.13826708 -0.13423404 0.14881317 0.07494517
-0.04977449 -0.39953408 0.1706627 0.09027693 0.03456006 0.20838696 -0.022079695 -0.07193349
-0.51472086 -0.20789857 -0.2046694 0.1700486 0.10915803 -0.0035266564 -0.25833923 -0.17597732
-0.3165973 0.05233632 -0.22829755 0.18525755 -0.10343936 0.01951816 0.1782486 0.31023604

network.network.4.bias f4 [2]
00000000: ec37 89bc 1d33 ac3d
-0.016750298 0.084081866
