weekly/week3/model_tg.pt (torch, 34072 bytes, 9 tensors)

beta f4 [1000]
000000 17 b7 d1 38 84 7d fb 38 f8 a1 12 39 2f 85 27 39
       1e-04 0.00011991992 0.00013983983 0.00015975976
000010 66 68 3c 39 9c 4b 51 39 d2 2e 66 39 09 12 7b 39
       0.00017967969 0.0001995996 0.00021951951 0.00023943944
000020 a0 fa 87 39 3b 6c 92 39 d6 dd 9c 39 72 4f a7 39
       0.00025935937 0.00027927928 0.0002991992 0.00031911914
000030 0d c1 b1 39 a8 32 bc 39 43 a4 c6 39 de 15 d1 39
       0.00033903905 0.00035895896 0.00037887887 0.0003987988
000040 7a 87 db 39 15 f9 e5 39 b0 6a f0 39 4c dc fa 39
       0.00041871873 0.00043863864 0.00045855856 0.0004784785
000050 f3 a6 02 3a c1 df 07 3a 8f 18 0d 3a 5c 51 12 3a
       0.0004983984 0.0005183183 0.00053823827 0.00055815815
000060 2a 8a 17 3a f8 c2 1c 3a c5 fb 21 3a 93 34 27 3a
       0.0005780781 0.00059799803 0.0006179179 0.00063783786
000070 60 6d 2c 3a 2e a6 31 3a fc de 36 3a c9 17 3c 3a
       0.00065775774 0.0006776777 0.0006975976 0.0007175175
000080 97 50 41 3a 64 89 46 3a 32 c2 4b 3a 00 fb 50 3a
       0.00073743745 0.00075735734 0.0007772773 0.0007971972
000090 cd 33 56 3a 9b 6c 5b 3a 69 a5 60 3a 36 de 65 3a
       0.0008171171 0.00083703705 0.000856957 0.0008768769
0000a0 04 17 6b 3a d2 4f 70 3a 9f 88 75 3a 6d c1 7a 3a
       0.0008967968 0.00091671676 0.00093663664 0.0009565566
0000b0 3a fa 7f 3a 84 99 82 3a eb 35 85 3a 52 d2 87 3a
       0.00097647647 0.0009963964 0.0010163164 0.0010362363
0000c0 b8 6e 8a 3a 1f 0b 8d 3a 86 a7 8f 3a ed 43 92 3a
       0.0010561561 0.0010760761 0.001095996 0.001115916
0000d0 54 e0 94 3a ba 7c 97 3a 21 19 9a 3a 88 b5 9c 3a
       0.0011358359 0.0011557557 0.0011756757 0.0011955956
0000e0 ef 51 9f 3a 56 ee a1 3a bd 8a a4 3a 23 27 a7 3a
       0.0012155155 0.0012354355 0.0012553554 0.0012752753
0000f0 8a c3 a9 3a f1 5f ac 3a 58 fc ae 3a bf 98 b1 3a
       0.0012951952 0.0013151151 0.0013350351 0.001354955
000100 25 35 b4 3a 8c d1 b6 3a f3 6d b9 3a 5a 0a bc 3a
       0.0013748748 0.0013947948 0.0014147147 0.0014346347
000110 c1 a6 be 3a 28 43 c1 3a 8e df c3 3a f5 7b c6 3a
       0.0014545546 0.0014744746 0.0014943944 0.0015143143
000120 5c 18 c9 3a c3 b4 cb 3a 2a 51 ce 3a 90 ed d0 3a
       0.0015342343 0.0015541542 0.0015740742 0.001593994
000130 f7 89 d3 3a 5e 26 d6 3a c5 c2 d8 3a 2c 5f db 3a
       0.0016139139 0.0016338339 0.0016537538 0.0016736737
000140 92 fb dd 3a f9 97 e0 3a 60 34 e3 3a c7 d0 e5 3a
       0.0016935936 0.0017135135 0.0017334335 0.0017533534
000150 2e 6d e8 3a 94 09 eb 3a fb a5 ed 3a 62 42 f0 3a
       0.0017732733 0.0017931932 0.0018131131 0.001833033
000160 c9 de f2 3a 30 7b f5 3a 97 17 f8 3a fd b3 fa 3a
       0.001852953 0.0018728729 0.0018927929 0.0019127127
000170 64 50 fd 3a cb ec ff 3a 99 44 01 3b cc 92 02 3b
       0.0019326326 0.0019525526 0.0019724725 0.0019923924
000180 00 e1 03 3b 33 2f 05 3b 67 7d 06 3b 9a cb 07 3b
       0.0020123124 0.0020322322 0.0020521523 0.0020720721
000190 cd 19 09 3b 01 68 0a 3b 34 b6 0b 3b 68 04 0d 3b
       0.002091992 0.002111912 0.0021318318 0.002151752
0001a0 9b 52 0e 3b ce a0 0f 3b 02 ef 10 3b 35 3d 12 3b
       0.0021716717 0.0021915915 0.0022115116 0.0022314314
0001b0 69 8b 13 3b 9c d9 14 3b cf 27 16 3b 03 76 17 3b
       0.0022513515 0.0022712713 0.0022911911 0.0023111112
0001c0 36 c4 18 3b 6a 12 1a 3b 9d 60 1b 3b d0 ae 1c 3b
       0.002331031 0.002350951 0.002370871 0.0023907907
0001d0 04 fd 1d 3b 37 4b 1f 3b 6b 99 20 3b 9e e7 21 3b
       0.0024107108 0.0024306306 0.0024505507 0.0024704705
0001e0 d1 35 23 3b 05 84 24 3b 38 d2 25 3b 6c 20 27 3b
       0.0024903903 0.0025103104 0.0025302302 0.0025501503
0001f0 9f 6e 28 3b d2 bc 29 3b 06 0b 2b 3b 39 59 2c 3b
       0.00257007 0.00258999 0.00260991 0.0026298298
000200 6d a7 2d 3b a0 f5 2e 3b d4 43 30 3b 07 92 31 3b
       0.0026497499 0.0026696697 0.0026895897 0.0027095096
000210 3a e0 32 3b 6e 2e 34 3b a1 7c 35 3b d5 ca 36 3b
       0.0027294294 0.0027493495 0.0027692693 0.0027891893
000220 08 19 38 3b 3b 67 39 3b 6f b5 3a 3b a2 03 3c 3b
       0.0028091092 0.002829029 0.002848949 0.0028688689
000230 d6 51 3d 3b 09 a0 3e 3b 3c ee 3f 3b 70 3c 41 3b
       0.002888789 0.0029087088 0.0029286286 0.0029485486
000240 a3 8a 42 3b d7 d8 43 3b 0a 27 45 3b 3d 75 46 3b
       0.0029684685 0.0029883885 0.0030083084 0.0030282282
000250 71 c3 47 3b a4 11 49 3b d8 5f 4a 3b 0b ae 4b 3b
       0.0030481482 0.003068068 0.0030879881 0.003107908
000260 3e fc 4c 3b 72 4a 4e 3b a5 98 4f 3b d9 e6 50 3b
       0.0031278278 0.0031477478 0.0031676677 0.0031875877
000270 0c 35 52 3b 40 83 53 3b 73 d1 54 3b a6 1f 56 3b
       0.0032075075 0.0032274276 0.0032473474 0.0032672673
000280 da 6d 57 3b 0d bc 58 3b 41 0a 5a 3b 74 58 5b 3b
       0.0032871873 0.0033071071 0.0033270272 0.003346947
000290 a7 a6 5c 3b db f4 5d 3b 0e 43 5f 3b 42 91 60 3b
       0.0033668668 0.003386787 0.0034067067 0.0034266268
0002a0 75 df 61 3b a8 2d 63 3b dc 7b 64 3b 0f ca 65 3b
       0.0034465466 0.0034664664 0.0034863865 0.0035063063
0002b0 43 18 67 3b 76 66 68 3b a9 b4 69 3b dd 02 6b 3b
       0.0035262264 0.0035461462 0.003566066 0.003585986
0002c0 10 51 6c 3b 44 9f 6d 3b 77 ed 6e 3b aa 3b 70 3b
       0.003605906 0.003625826 0.0036457458 0.0036656656
0002d0 de 89 71 3b 11 d8 72 3b 45 26 74 3b 78 74 75 3b
       0.0036855857 0.0037055055 0.0037254256 0.0037453454
0002e0 ab c2 76 3b df 10 78 3b 12 5f 79 3b 46 ad 7a 3b
       0.0037652652 0.0037851853 0.003805105 0.0038250252
0002f0 79 fb 7b 3b ac 49 7d 3b e0 97 7e 3b 13 e6 7f 3b
       0.003844945 0.0038648648 0.0038847849 0.0039047047
000300 23 9a 80 3b 3d 41 81 3b 57 e8 81 3b 70 8f 82 3b
       0.0039246245 0.0039445446 0.0039644646 0.0039843842
000310 8a 36 83 3b a4 dd 83 3b be 84 84 3b d7 2b 85 3b
       0.0040043043 0.0040242244 0.0040441444 0.004064064
000320 f1 d2 85 3b 0b 7a 86 3b 24 21 87 3b 3e c8 87 3b
       0.004083984 0.004103904 0.0041238237 0.004143744
000330 58 6f 88 3b 72 16 89 3b 8b bd 89 3b a5 64 8a 3b
       0.004163664 0.004183584 0.0042035035 0.0042234235
000340 bf 0b 8b 3b d8 b2 8b 3b f2 59 8c 3b 0c 01 8d 3b
       0.0042433436 0.004263263 0.0042831833 0.0043031033
000350 25 a8 8d 3b 3f 4f 8e 3b 59 f6 8e 3b 73 9d 8f 3b
       0.004323023 0.004342943 0.004362863 0.004382783
000360 8c 44 90 3b a6 eb 90 3b c0 92 91 3b d9 39 92 3b
       0.0044027027 0.0044226227 0.004442543 0.0044624624
000370 f3 e0 92 3b 0d 88 93 3b 26 2f 94 3b 40 d6 94 3b
       0.0044823824 0.0045023025 0.004522222 0.004542142
000380 5a 7d 95 3b 74 24 96 3b 8d cb 96 3b a7 72 97 3b
       0.004562062 0.0045819823 0.004601902 0.004621822
000390 c1 19 98 3b da c0 98 3b f4 67 99 3b 0e 0f 9a 3b
       0.004641742 0.0046616616 0.0046815816 0.0047015017
0003a0 27 b6 9a 3b 41 5d 9b 3b 5b 04 9c 3b 75 ab 9c 3b
       0.0047214213 0.0047413413 0.0047612614 0.0047811815
0003b0 8e 52 9d 3b a8 f9 9d 3b c2 a0 9e 3b db 47 9f 3b
       0.004801101 0.004821021 0.004840941 0.0048608608
0003c0 f5 ee 9f 3b 0f 96 a0 3b 29 3d a1 3b 42 e4 a1 3b
       0.004880781 0.004900701 0.004920621 0.0049405405
0003d0 5c 8b a2 3b 76 32 a3 3b 8f d9 a3 3b a9 80 a4 3b
       0.0049604606 0.0049803806 0.0050003002 0.0050202203
0003e0 c3 27 a5 3b dc ce a5 3b f6 75 a6 3b 10 1d a7 3b
       0.0050401404 0.00506006 0.00507998 0.0050999
0003f0 2a c4 a7 3b 43 6b a8 3b 5d 12 a9 3b 77 b9 a9 3b
       0.00511982 0.0051397397 0.00515966 0.00517958

alpha f4 [1000]
000000 72 f9 7f 3f 24 f8 7f 3f d6 f6 7f 3f 88 f5 7f 3f
       0.9999 0.9998801 0.99986017 0.99984026
000010 39 f4 7f 3f eb f2 7f 3f 9d f1 7f 3f 4f f0 7f 3f
       0.9998203 0.9998004 0.9997805 0.99976057
000020 01 ef 7f 3f b2 ed 7f 3f 64 ec 7f 3f 16 eb 7f 3f
       0.99974066 0.9997207 0.9997008 0.9996809
000030 c8 e9 7f 3f 7a e8 7f 3f 2b e7 7f 3f dd e5 7f 3f
       0.99966097 0.99964106 0.9996211 0.9996012
000040 8f e4 7f 3f 41 e3 7f 3f f3 e1 7f 3f a4 e0 7f 3f
       0.9995813 0.99956137 0.99954146 0.9995215
000050 56 df 7f 3f 08 de 7f 3f ba dc 7f 3f 6c db 7f 3f
       0.9995016 0.9994817 0.99946177 0.99944186
000060 1d da 7f 3f cf d8 7f 3f 81 d7 7f 3f 33 d6 7f 3f
       0.9994219 0.999402 0.9993821 0.9993622
000070 e5 d4 7f 3f 96 d3 7f 3f 48 d2 7f 3f fa d0 7f 3f
       0.99934226 0.9993223 0.9993024 0.9992825
000080 ac cf 7f 3f 5e ce 7f 3f 0f cd 7f 3f c1 cb 7f 3f
       0.9992626 0.99924266 0.9992227 0.9992028
000090 73 ca 7f 3f 25 c9 7f 3f d7 c7 7f 3f 88 c6 7f 3f
       0.9991829 0.999163 0.99914306 0.9991231
0000a0 3a c5 7f 3f ec c3 7f 3f 9e c2 7f 3f 50 c1 7f 3f
       0.9991032 0.9990833 0.9990634 0.99904346
0000b0 01 c0 7f 3f b3 be 7f 3f 65 bd 7f 3f 17 bc 7f 3f
       0.9990235 0.9990036 0.9989837 0.9989638
0000c0 c9 ba 7f 3f 7a b9 7f 3f 2c b8 7f 3f de b6 7f 3f
       0.99894387 0.9989239 0.998904 0.9988841
0000d0 90 b5 7f 3f 42 b4 7f 3f f3 b2 7f 3f a5 b1 7f 3f
       0.9988642 0.99884427 0.9988243 0.9988044
0000e0 57 b0 7f 3f 09 af 7f 3f bb ad 7f 3f 6c ac 7f 3f
       0.9987845 0.9987646 0.99874467 0.9987247
0000f0 1e ab 7f 3f d0 a9 7f 3f 82 a8 7f 3f 34 a7 7f 3f
       0.9987048 0.9986849 0.998665 0.99864507
000100 e5 a5 7f 3f 97 a4 7f 3f 49 a3 7f 3f fb a1 7f 3f
       0.9986251 0.9986052 0.9985853 0.9985654
000110 ad a0 7f 3f 5e 9f 7f 3f 10 9e 7f 3f c2 9c 7f 3f
       0.99854547 0.9985255 0.9985056 0.9984857
000120 74 9b 7f 3f 26 9a 7f 3f d7 98 7f 3f 89 97 7f 3f
       0.9984658 0.99844587 0.9984259 0.998406
000130 3b 96 7f 3f ed 94 7f 3f 9f 93 7f 3f 50 92 7f 3f
       0.9983861 0.9983662 0.99834627 0.9983263
000140 02 91 7f 3f b4 8f 7f 3f 66 8e 7f 3f 18 8d 7f 3f
       0.9983064 0.9982865 0.9982666 0.99824667
000150 c9 8b 7f 3f 7b 8a 7f 3f 2d 89 7f 3f df 87 7f 3f
       0.9982267 0.9982068 0.9981869 0.998167
000160 91 86 7f 3f 42 85 7f 3f f4 83 7f 3f a6 82 7f 3f
       0.9981471 0.9981271 0.9981072 0.9980873
000170 58 81 7f 3f 0a 80 7f 3f bb 7e 7f 3f 6d 7d 7f 3f
       0.9980674 0.9980475 0.9980275 0.9980076
000180 1f 7c 7f 3f d1 7a 7f 3f 83 79 7f 3f 34 78 7f 3f
       0.9979877 0.9979678 0.9979479 0.9979279
000190 e6 76 7f 3f 98 75 7f 3f 4a 74 7f 3f fc 72 7f 3f
       0.997908 0.9978881 0.9978682 0.9978483
0001a0 ad 71 7f 3f 5f 70 7f 3f 11 6f 7f 3f c3 6d 7f 3f
       0.9978283 0.9978084 0.9977885 0.9977686
0001b0 75 6c 7f 3f 26 6b 7f 3f d8 69 7f 3f 8a 68 7f 3f
       0.9977487 0.9977287 0.9977088 0.9976889
0001c0 3c 67 7f 3f ee 65 7f 3f 9f 64 7f 3f 51 63 7f 3f
       0.997669 0.9976491 0.9976291 0.9976092
0001d0 03 62 7f 3f b5 60 7f 3f 67 5f 7f 3f 18 5e 7f 3f
       0.9975893 0.9975694 0.9975495 0.9975295
0001e0 ca 5c 7f 3f 7c 5b 7f 3f 2e 5a 7f 3f e0 58 7f 3f
       0.9975096 0.9974897 0.9974698 0.9974499
0001f0 91 57 7f 3f 43 56 7f 3f f5 54 7f 3f a7 53 7f 3f
       0.9974299 0.99741 0.9973901 0.9973702
000200 59 52 7f 3f 0a 51 7f 3f bc 4f 7f 3f 6e 4e 7f 3f
       0.9973503 0.9973303 0.9973104 0.9972905
000210 20 4d 7f 3f d2 4b 7f 3f 83 4a 7f 3f 35 49 7f 3f
       0.9972706 0.9972507 0.9972307 0.9972108
000220 e7 47 7f 3f 99 46 7f 3f 4b 45 7f 3f fc 43 7f 3f
       0.9971909 0.997171 0.9971511 0.9971311
000230 ae 42 7f 3f 60 41 7f 3f 12 40 7f 3f c4 3e 7f 3f
       0.9971112 0.9970913 0.9970714 0.9970515
000240 75 3d 7f 3f 27 3c 7f 3f d9 3a 7f 3f 8b 39 7f 3f
       0.9970315 0.9970116 0.9969917 0.9969718
000250 3d 38 7f 3f ee 36 7f 3f a0 35 7f 3f 52 34 7f 3f
       0.9969519 0.9969319 0.996912 0.9968921
000260 04 33 7f 3f b6 31 7f 3f 67 30 7f 3f 19 2f 7f 3f
       0.9968722 0.9968523 0.9968323 0.9968124
000270 cb 2d 7f 3f 7d 2c 7f 3f 2f 2b 7f 3f e0 29 7f 3f
       0.9967925 0.9967726 0.9967527 0.9967327
000280 92 28 7f 3f 44 27 7f 3f f6 25 7f 3f a8 24 7f 3f
       0.9967128 0.9966929 0.996673 0.9966531
000290 59 23 7f 3f 0b 22 7f 3f bd 20 7f 3f 6f 1f 7f 3f
       0.9966331 0.9966132 0.9965933 0.9965734
0002a0 21 1e 7f 3f d2 1c 7f 3f 84 1b 7f 3f 36 1a 7f 3f
       0.9965535 0.9965335 0.9965136 0.9964937
0002b0 e8 18 7f 3f 9a 17 7f 3f 4b 16 7f 3f fd 14 7f 3f
       0.9964738 0.9964539 0.9964339 0.996414
0002c0 af 13 7f 3f 61 12 7f 3f 13 11 7f 3f c4 0f 7f 3f
       0.9963941 0.9963742 0.9963543 0.9963343
0002d0 76 0e 7f 3f 28 0d 7f 3f da 0b 7f 3f 8c 0a 7f 3f
       0.9963144 0.9962945 0.9962746 0.9962547
0002e0 3d 09 7f 3f ef 07 7f 3f a1 06 7f 3f 53 05 7f 3f
       0.9962347 0.9962148 0.9961949 0.996175
0002f0 05 04 7f 3f b6 02 7f 3f 68 01 7f 3f 1a 00 7f 3f
       0.9961551 0.9961351 0.9961152 0.9960953
000300 cc fe 7e 3f 7e fd 7e 3f 2f fc 7e 3f e1 fa 7e 3f
       0.9960754 0.9960555 0.9960355 0.9960156
000310 93 f9 7e 3f 45 f8 7e 3f f7 f6 7e 3f a8 f5 7e 3f
       0.9959957 0.9959758 0.9959559 0.9959359
000320 5a f4 7e 3f 0c f3 7e 3f be f1 7e 3f 70 f0 7e 3f
       0.995916 0.9958961 0.9958762 0.9958563
000330 21 ef 7e 3f d3 ed 7e 3f 85 ec 7e 3f 37 eb 7e 3f
       0.9958363 0.9958164 0.9957965 0.9957766
000340 e9 e9 7e 3f 9a e8 7e 3f 4c e7 7e 3f fe e5 7e 3f
       0.9957567 0.9957367 0.9957168 0.9956969
000350 b0 e4 7e 3f 62 e3 7e 3f 13 e2 7e 3f c5 e0 7e 3f
       0.995677 0.9956571 0.9956371 0.9956172
000360 77 df 7e 3f 29 de 7e 3f da dc 7e 3f 8c db 7e 3f
       0.9955973 0.9955774 0.9955574 0.9955375
000370 3e da 7e 3f f0 d8 7e 3f a2 d7 7e 3f 54 d6 7e 3f
       0.9955176 0.9954977 0.9954778 0.9954579
000380 05 d5 7e 3f b7 d3 7e 3f 69 d2 7e 3f 1b d1 7e 3f
       0.9954379 0.995418 0.9953981 0.9953782
000390 cc cf 7e 3f 7e ce 7e 3f 30 cd 7e 3f e2 cb 7e 3f
       0.9953582 0.9953383 0.9953184 0.9952985
0003a0 94 ca 7e 3f 45 c9 7e 3f f7 c7 7e 3f a9 c6 7e 3f
       0.9952786 0.9952586 0.9952387 0.9952188
0003b0 5b c5 7e 3f 0d c4 7e 3f be c2 7e 3f 70 c1 7e 3f
       0.9951989 0.995179 0.99515903 0.9951391
0003c0 22 c0 7e 3f d4 be 7e 3f 86 bd 7e 3f 37 bc 7e 3f
       0.9951192 0.9950993 0.9950794 0.99505943
0003d0 e9 ba 7e 3f 9b b9 7e 3f 4d b8 7e 3f ff b6 7e 3f
       0.9950395 0.9950196 0.9949997 0.9949798
0003e0 b0 b5 7e 3f 62 b4 7e 3f 14 b3 7e 3f c6 b1 7e 3f
       0.99495983 0.9949399 0.99492 0.9949001
0003f0 78 b0 7e 3f 29 af 7e 3f db ad 7e 3f 8d ac 7e 3f
       0.9948802 0.99486023 0.9948403 0.9948204

alpha_cumprod f4 [1000]
000000 72 f9 7f 3f 96 f1 7f 3f 6d e8 7f 3f f6 dd 7f 3f
       0.9999 0.99978006 0.9996403 0.9994806
000010 30 d2 7f 3f 1e c5 7f 3f be b6 7f 3f 11 a7 7f 3f
       0.99930096 0.9991015 0.9988822 0.998643
000020 18 96 7f 3f d2 83 7f 3f 3f 70 7f 3f 61 5b 7f 3f
       0.998384 0.99810517 0.9978065 0.9974881
000030 37 45 7f 3f c3 2d 7f 3f 02 15 7f 3f f7 fa 7e 3f
       0.9971499 0.996792 0.9964143 0.9960169
000040 a2 df 7e 3f 03 c3 7e 3f 1c a5 7e 3f ea 85 7e 3f
       0.99559987 0.99516314 0.99470687 0.99423087
000050 70 65 7e 3f af 43 7e 3f a6 20 7e 3f 56 fc 7d 3f
       0.9937353 0.99322027 0.9926857 0.9921316
000060 c0 d6 7d 3f e3 af 7d 3f c2 87 7d 3f 5c 5e 7d 3f
       0.9915581 0.99096507 0.99035275 0.98972106
000070 b3 33 7d 3f c5 07 7d 3f 95 da 7c 3f 23 ac 7c 3f
       0.9890701 0.9883998 0.9877103 0.9870016
000080 70 7c 7c 3f 7c 4b 7c 3f 48 19 7c 3f d5 e5 7b 3f
       0.98627377 0.9855268 0.98476076 0.9839757
000090 23 b1 7b 3f 35 7b 7b 3f 09 44 7b 3f a1 0b 7b 3f
       0.98317164 0.98234874 0.9815069 0.9806462
0000a0 ff d1 7a 3f 22 97 7a 3f 0c 5b 7a 3f be 1d 7a 3f
       0.9797668 0.9788686 0.97795177 0.9770163
0000b0 37 df 79 3f 7a 9f 79 3f 88 5e 79 3f 61 1c 79 3f
       0.97606224 0.97508967 0.9740987 0.9730893
0000c0 07 d9 78 3f 7a 94 78 3f bb 4e 78 3f cb 07 78 3f
       0.9720616 0.9710156 0.96995133 0.9688689
0000d0 ac bf 77 3f 5f 76 77 3f e4 2b 77 3f 3d e0 76 3f
       0.96776843 0.96664995 0.96551347 0.9643591
0000e0 6b 93 76 3f 6f 45 76 3f 4a f6 75 3f fd a5 75 3f
       0.9631869 0.961997 0.9607893 0.95956403
0000f0 8a 54 75 3f f1 01 75 3f 35 ae 74 3f 56 59 74 3f
       0.9583212 0.9570609 0.9557832 0.95448816
000100 55 03 74 3f 34 ac 73 3f f4 53 73 3f 96 fa 72 3f
       0.95317584 0.95184636 0.9504998 0.94913614
000110 1c a0 72 3f 87 44 72 3f d8 e7 71 3f 11 8a 71 3f
       0.9477556 0.94635814 0.9449439 0.943513
000120 33 2b 71 3f 3f cb 70 3f 37 6a 70 3f 1c 08 70 3f
       0.9420654 0.9406013 0.9391207 0.93762374
000130 f0 a4 6f 3f b4 40 6f 3f 6a db 6e 3f 13 75 6e 3f
       0.9361105 0.93458104 0.9330355 0.9314739
000140 b0 0d 6e 3f 43 a5 6d 3f ce 3b 6d 3f 52 d1 6c 3f
       0.92989635 0.92830294 0.9266938 0.925069
000150 d1 65 6c 3f 4b f9 6b 3f c4 8b 6b 3f 3c 1d 6b 3f
       0.9234286 0.92177266 0.9201014 0.91841483
000160 b5 ad 6a 3f 30 3d 6a 3f b0 cb 69 3f 35 59 69 3f
       0.91671306 0.91499615 0.9132643 0.91151744
000170 c2 e5 68 3f 58 71 68 3f f9 fb 67 3f a5 85 67 3f
       0.9097558 0.9079795 0.90618855 0.904383
000180 60 0e 67 3f 2c 96 66 3f 08 1d 66 3f f8 a2 65 3f
       0.9025631 0.90072894 0.8988805 0.89701796
000190 fc 27 65 3f 18 ac 64 3f 4c 2f 64 3f 9a b1 63 3f
       0.89514136 0.89325094 0.8913467 0.88942873
0001a0 04 33 63 3f 8b b3 62 3f 33 33 62 3f fb b1 61 3f
       0.8874972 0.8855521 0.88359374 0.881622
0001b0 e8 2f 61 3f f8 ac 60 3f 30 29 60 3f 90 a4 5f 3f
       0.87963724 0.8776393 0.8756285 0.8736048
0001c0 1b 1f 5f 3f d3 98 5e 3f b8 11 5e 3f cd 89 5d 3f
       0.8715684 0.8695194 0.86745787 0.8653839
0001d0 15 01 5d 3f 90 77 5c 3f 42 ed 5b 3f 2a 62 5b 3f
       0.86329776 0.8611994 0.859089 0.8569666
0001e0 4d d6 5a 3f ab 49 5a 3f 46 bc 59 3f 21 2e 59 3f
       0.8548325 0.8526866 0.8505291 0.8483601
0001f0 3d 9f 58 3f 9b 0f 58 3f 40 7f 57 3f 2b ee 56 3f
       0.8461798 0.8439881 0.84178543 0.83957165
000200 60 5c 56 3f df c9 55 3f ac 36 55 3f c7 a2 54 3f
       0.83734703 0.83511156 0.8328655 0.8306088
000210 34 0e 54 3f f4 78 53 3f 08 e3 52 3f 74 4c 52 3f
       0.8283417 0.82606435 0.8237767 0.8214791
000220 38 b5 51 3f 58 1d 51 3f d5 84 50 3f b0 eb 4f 3f
       0.8191714 0.816854 0.81452686 0.81219006
000230 ec 51 4f 3f 8c b7 4e 3f 91 1c 4e 3f fd 80 4d 3f
       0.8098438 0.8074882 0.8051234 0.80274945
000240 d2 e4 4c 3f 12 48 4c 3f bf aa 4b 3f dc 0c 4b 3f
       0.8003665 0.7979747 0.7955741 0.79316497
000250 6a 6e 4a 3f 6b cf 49 3f e2 2f 49 3f d0 8f 48 3f
       0.7907473 0.7883212 0.7858869 0.7834444
000260 38 ef 47 3f 1c 4e 47 3f 7d ac 46 3f 5d 0a 46 3f
       0.78099394 0.7785356 0.77606946 0.77359563
000270 c0 67 45 3f a6 c4 44 3f 13 21 44 3f 07 7d 43 3f
       0.77111435 0.7686256 0.7661297 0.7636265
000280 85 d8 42 3f 8f 33 42 3f 27 8e 41 3f 50 e8 40 3f
       0.7611163 0.7585992 0.7560753 0.7535448
000290 0b 42 40 3f 5a 9b 3f 3f 3f f4 3e 3f bd 4c 3e 3f
       0.75100774 0.7484642 0.7459144 0.74335843
0002a0 d6 a4 3d 3f 8b fc 3c 3f de 53 3c 3f d3 aa 3b 3f
       0.74079645 0.7382285 0.7356547 0.7330753
0002b0 6a 01 3b 3f a6 57 3a 3f 89 ad 39 3f 14 03 39 3f
       0.7304903 0.7278999 0.7253042 0.7227032
0002c0 4b 58 38 3f 2f ad 37 3f c2 01 37 3f 05 56 36 3f
       0.72009724 0.7174863 0.7148706 0.71225005
0002d0 fc a9 35 3f a8 fd 34 3f 0b 51 34 3f 28 a4 33 3f
       0.709625 0.7069955 0.7043616 0.7017236
0002e0 ff f6 32 3f 94 49 32 3f e8 9b 31 3f fe ed 30 3f
       0.69908136 0.6964352 0.6937852 0.6911315
0002f0 d7 3f 30 3f 75 91 2f 3f db e2 2e 3f 0a 34 2e 3f
       0.6884741 0.68581325 0.68314904 0.68048155
000300 04 85 2d 3f cc d5 2c 3f 62 26 2c 3f ca 76 2b 3f
       0.6778109 0.6751373 0.6724607 0.6697813
000310 06 c7 2a 3f 17 17 2a 3f ff 66 29 3f c0 b6 28 3f
       0.66709936 0.6644148 0.66172785 0.65903854
000320 5c 06 28 3f d5 55 27 3f 2d a5 26 3f 66 f4 25 3f
       0.65634704 0.65365344 0.6509579 0.6482605
000330 82 43 25 3f 83 92 24 3f 6a e1 23 3f 3b 30 23 3f
       0.64556134 0.6428606 0.6401583 0.6374547
000340 f6 7e 22 3f 9d cd 21 3f 32 1c 21 3f b8 6a 20 3f
       0.63474977 0.63204366 0.6293365 0.6266284
000350 30 b9 1f 3f 9c 07 1f 3f fd 55 1e 3f 56 a4 1d 3f
       0.6239195 0.62120986 0.6184996 0.6157888
000360 a9 f2 1c 3f f7 40 1c 3f 42 8f 1b 3f 8c dd 1a 3f
       0.6130777 0.6103663 0.6076547 0.60494304
000370 d7 2b 1a 3f 25 7a 19 3f 77 c8 18 3f d0 16 18 3f
       0.60223144 0.59952 0.59680885 0.5940981
000380 30 65 17 3f 9b b3 16 3f 11 02 16 3f 94 50 15 3f
       0.59138775 0.58867806 0.58596903 0.5832608
000390 26 9f 14 3f c9 ed 13 3f 7f 3c 13 3f 48 8b 12 3f
       0.5805534 0.57784706 0.57514185 0.57243776
0003a0 29 da 11 3f 20 29 11 3f 31 78 10 3f 5d c7 0f 3f
       0.5697351 0.56703377 0.564334 0.5616358
0003b0 a5 16 0f 3f 0d 66 0e 3f 94 b5 0d 3f 3c 05 0d 3f
       0.5589393 0.5562447 0.5535519 0.5508611
0003c0 09 55 0c 3f fa a4 0b 3f 12 f5 0a 3f 51 45 0a 3f
       0.54817253 0.5454861 0.542802 0.5401202
0003d0 bb 95 09 3f 50 e6 08 3f 12 37 08 3f 03 88 07 3f
       0.53744096 0.5347643 0.5320903 0.5294191
0003e0 23 d9 06 3f 75 2a 06 3f fa 7b 05 3f b4 cd 04 3f
       0.52675074 0.52408534 0.521423 0.5187638
0003f0 a5 1f 04 3f cc 71 03 3f 2d c4 02 3f c8 16 02 3f
       0.51610786 0.51345515 0.5108059 0.5081601

network.network.0.weight f4 [64, 3]
000000 87 26 a7 3e a1 ee e0 3e b8 f6 3d 3f 89 8b 72 be
       0.32646582 0.4393206 0.7420459 -0.23686041
000010 13 00 84 3e 39 b4 15 3f 02 ea 8f 3d 6e 77 d9 3e
       0.25781307 0.5847812 0.07027055 0.4247393
000020 2b 20 e4 3e f0 34 85 be aa 26 bb be 62 64 6e bf
       0.44555792 -0.2601695 -0.36552936 -0.9312192
000030 ba ef cb 3e 4e d3 22 3d 86 7b f5 3e 8f 18 fc bd
       0.39831334 0.039752297 0.47945803 -0.12309372
000040 b3 b5 91 be 39 4e c0 bf b4 9c 31 3f b7 b6 2d 3f
       -0.28458938 -1.5023872 0.69379735 0.67856926
000050 76 52 72 be 75 f4 19 3f 35 6b 06 3f f8 e6 58 3f
       -0.23664269 0.60138637 0.52507335 0.8472743
000060 c2 a0 17 3e 6b ee e2 bd 4a 79 53 be 38 35 d2 3e
       0.14807418 -0.11080631 -0.20651737 0.41056228
000070 af af cf bc b5 6f 2d 3f 6d 94 21 3f 05 3c 31 3f
       -0.025352327 0.67748576 0.63117105 0.6923221
000080 bb a7 b0 bf a1 83 8f 3e f0 5f 35 be 7f 21 5d 3f
       -1.3801187 0.28030112 -0.17712379 0.86379236
000090 39 d8 20 3f 19 76 1d 3f e8 0e d1 be e1 09 f9 3c
       0.6282993 0.6150833 -0.40831685 0.030400218
0000a0 45 14 ef 3c e5 27 b1 be c7 c9 06 be 83 73 98 3d
       0.02918447 -0.3460075 -0.1316291 0.07443907
0000b0 c9 b6 ae 3e 2f 93 08 3f 39 e4 fc be 56 7d cc bf
       0.3412383 0.53349584 -0.4939287 -1.597575
0000c0 1a 25 8f 3c ea b3 73 3c 16 b7 a4 bf 5f 36 8e bd
       0.017473746 0.014874438 -1.2868373 -0.06943964
0000d0 3c c2 5c be 37 f7 39 3d cc e7 41 be f1 09 98 3e
       -0.2155847 0.045401778 -0.1893608 0.29695085
0000e0 51 4e 1c 3f de db cd 3e 6c 05 bd 3e 8b b4 20 c0
       0.61057 0.40206808 0.369182 -2.5110195
0000f0 c5 61 13 bf 59 b6 fb be f2 5a ce be 56 92 bf 3e
       -0.5757106 -0.49162558 -0.4030376 0.37416333
000100 85 32 49 3e d3 9c 25 3f 0c 58 a2 3e 10 0d 81 3e
       0.19648178 0.6469242 0.317078 0.25205278
000110 a0 b1 13 3f 91 97 d7 be e9 15 ba 3e fa a5 2c 3e
       0.5769291 -0.42107823 0.3634484 0.1686019
000120 1f 35 8c bb f9 03 49 3b 02 f1 dd bf 3c e1 cd be
       -0.0042787935 0.0030672534 -1.7339175 -0.40210903
000130 e7 0c 00 bf 44 f6 0a bf 74 e4 c9 be 9d 68 64 be
       -0.5001969 -0.5428202 -0.39432108 -0.22305532
000140 aa 0d d9 3e 26 b3 79 be e7 c4 6f be 3f c9 43 bf
       0.42393237 -0.24384746 -0.23414956 -0.7647895
000150 95 d4 0c 3e 7a b4 e6 be 26 a0 47 3f 2f be 18 3f
       0.13752969 -0.45059568 0.7797874 0.596652
000160 66 20 ff be 5f d2 0a bf 95 dd 43 be 88 ab 12 bf
       -0.49829406 -0.5422725 -0.19127496 -0.57292986
000170 43 d8 f9 3e 40 60 d0 3e 72 ae b9 be b9 f9 03 bd
       0.48797807 0.40698433 -0.36265904 -0.032220576
000180 66 b0 e1 3c e2 10 03 bf 8f c8 35 3e 41 94 b6 3d
       0.027549934 -0.51197636 0.17752288 0.08914996
000190 01 a6 d4 3e 39 d3 a6 3e e2 3f f3 bd bb eb dd bd
       0.415329 0.32583025 -0.11877419 -0.10835978
0001a0 27 5a 81 3f a8 9a b9 be 64 98 f3 be 95 27 97 be
       1.0105637 -0.36250806 -0.47577202 -0.29522386
0001b0 3c d5 08 3e 9c 8a 9a 3d 98 76 b4 bf 64 4a d4 be
       0.13362592 0.07545969 -1.4098692 -0.41463006
0001c0 29 77 b9 be f9 64 4f bf f1 d1 48 bd 77 ca ef be
       -0.36223724 -0.8101345 -0.04902834 -0.46834156
0001d0 20 50 ab ba 1d 22 d0 be 5d c2 8f bb d2 ac 10 bd
       -0.0013070144 -0.40651026 -0.0043871836 -0.035321064
0001e0 22 8c 10 bf ff fe 00 3f d2 7f 4a 3d af 28 03 3f
       -0.56463826 0.50389093 0.049438305 0.51233953
0001f0 7f 88 c4 3e 2b 99 0f bf c3 2e 07 bf 13 20 02 bf
       0.38385388 -0.5609309 -0.5280573 -0.5083019
000200 5a 88 1f 3f 7b ac 07 3f 80 b3 00 bf 05 4d 21 3f
       0.6231743 0.5299756 -0.50273895 0.6300815
000210 79 fe bd 3c 88 1b e5 3e e6 36 40 bf a4 67 e1 3e
       0.023192631 0.44747567 -0.7508377 0.44024384
000220 c5 68 c2 be be 77 4c bf 6e 6f b7 be 9f 33 b0 be
       -0.37970558 -0.7987021 -0.35827202 -0.34414384
000230 83 6a b9 bf b7 e8 57 ba 76 47 67 be 17 29 1f 3f
       -1.448563 -0.00082362763 -0.22585854 0.62172073
000240 03 a5 9f 3d 6f e3 bf be c8 d1 5b 3f 05 5f c2 be
       0.07795145 -0.37478206 0.85866976 -0.3796312
000250 52 ec 34 be b6 42 88 bc bd 09 b2 be 11 3d 87 3e
       -0.17668274 -0.016633373 -0.34773055 0.26413777
000260 af fd 32 3e f5 f7 00 be 5a e3 ce be 4e a7 2b 3f
       0.17479585 -0.12594588 -0.4040783 0.6705216
000270 77 56 05 3f b9 2d 81 3e ce bd a3 bf 23 c9 ad 3e
       0.5208506 0.25230196 -1.2792299 0.33942518
000280 85 ab 25 be 06 37 82 3f 40 91 8f 3e e7 e3 a3 3e
       -0.16178711 1.0173042 0.28040504 0.32009813
000290 f6 8c ed 3e 81 b8 d7 be 94 b3 08 bf 4a 0b 4d 3e
       0.46396607 -0.42132953 -0.53399014 0.20023838
0002a0 5a a8 d2 3e 9c 66 34 bd e0 f2 9b bf a4 c1 20 3f
       0.41144067 -0.04404317 -1.2183495 0.6279547
0002b0 d6 51 0f 3f 39 0b 54 bf ff 12 0e 3f e9 20 11 3f
       0.55984247 -0.82829624 0.55497736 0.5669084
0002c0 28 0e 5e bf 4a 57 85 3e ad fa c9 be ed b7 94 bd
       -0.8674035 0.2604316 -0.39449063 -0.072616436
0002d0 99 2b f9 3e cd a4 de 3c 1f 35 1a 3f 76 67 9b be
       0.48666075 0.027178193 0.60237306 -0.30352372
0002e0 93 9b d2 be 64 e6 08 bf b0 b1 e9 3e 5c f7 3c 3e
       -0.4113432 -0.5347655 0.45643377 0.18453735
0002f0 92 c1 99 3e f8 ea 99 3d d7 8a 89 3d 9d 01 f1 be
       0.30030495 0.0751552 0.06715935 -0.47071543

network.network.0.bias f4 [64]
000000 75 9e 12 be b2 c6 f4 3e fa 2e cc bd ed 2f 0d 3e
       -0.14318259 0.47807842 -0.099698976 0.13787813
000010 d8 8c 1c 3e b2 eb 5d 3d a3 3b 68 be 77 64 41 be
       0.15288103 0.054179855 -0.22679 -0.1888598
000020 12 81 4f be e4 37 0e 3f 00 95 d1 3d a5 e4 13 3f
       -0.2026408 0.5555403 0.102334976 0.5777076
000030 87 a8 a8 3d 77 59 05 be 3a c3 47 3e 27 08 a4 3c
       0.08235269 -0.1302241 0.19508067 0.020023419
000040 91 b8 39 3f 73 d1 c0 3e 27 da 3f 3b 79 c3 a3 bb
       0.7254725 0.37659797 0.0029274316 -0.0049976674
000050 92 83 79 bd c3 ac 1a be 01 fe ec 3e 1e 71 bb 3e
       -0.06091649 -0.15104966 0.4628754 0.3660974
000060 bd 37 20 3f 42 d6 1a bd bc e4 31 bd e7 5e cf 3b
       0.6258505 -0.03780199 -0.04343103 0.006328452
000070 c9 78 11 3f 91 9c bc be 10 c9 b5 bb b0 87 62 3e
       0.5682493 -0.368382 -0.00554765 0.22122073
000080 80 5f ff 3d cf 00 48 3e 4d 71 0e be 00 56 03 bd
       0.12469387 0.19531558 -0.13910408 -0.032064438
000090 29 77 d7 3e 81 73 13 3e cd 28 a9 3e ca f0 dd 3e
       0.420831 0.1439953 0.3303894 0.4334777
0000a0 b9 44 94 be 14 90 88 3d ab 81 da bd 06 a2 c8 bd
       -0.2895868 0.06668106 -0.106692635 -0.097965285
0000b0 c8 fc 2b 3d 53 fa a7 3e 5e 07 5b 3e a4 07 d9 3e
       0.041989118 0.3280817 0.21389529 0.42388642
0000c0 83 60 5d be 3a c1 01 3e 99 0b e0 3e bc 54 c9 3e
       -0.21618848 0.12671366 0.43758848 0.3932246
0000d0 f4 0d 02 3e c9 a6 89 3d b5 1b d6 bd 5e 65 63 bd
       0.12700635 0.06721265 -0.104545034 -0.055516593
0000e0 64 f0 84 3e 7a 2b b7 3d b0 ad 96 be bb 81 fc 3e
       0.25964653 0.08943839 -0.29429388 0.49317726
0000f0 b3 eb aa be 5c 6f 83 3e d8 3d 1a 3f 4a e5 69 3e
       -0.3338295 0.25670898 0.60250616 0.22841373

network.network.2.weight f4 [64, 64]
000000 58 14 4a 3e 99 15 f1 bd 45 f3 ab 3d ac c2 6a 3e
       0.19734323 -0.117716976 0.08396009 0.22925824
000010 38 d5 66 3d 3b 67 2d 3e 4e bc a0 3e 2a 64 41 3e
       0.056355685 0.1693391 0.31393665 0.18885866
000020 9b 6e 46 3d d4 ad 94 3c d0 fa 86 be 02 81 98 bc
       0.048445325 0.018149294 -0.2636323 -0.018616203
000030 d5 81 8d bd 8c 01 e1 3d f0 b7 59 bc ad 0c c0 3d
       -0.06909529 0.10986623 -0.013288483 0.09377418
000040 ef a0 d5 3d 11 72 f1 3d d0 7b d6 bd 40 8b ca 3e
       0.10431086 0.117893346 -0.10472834 0.39559364
000050 f9 84 1d be 51 42 74 bd 78 19 45 3d 07 8c 4c bd
       -0.15382756 -0.059633557 0.048119992 -0.049938228
000060 22 ff 1c 3e 51 56 0b be 58 6d 88 bd 2e 30 f3 bd
       0.153317 -0.13607146 -0.06661481 -0.11874424
000070 02 ce 08 bd 3b 4f 25 bd b1 d0 be bd b1 2f 9b 3d
       -0.03339959 -0.040358763 -0.093171485 0.07577456
000080 31 a2 8f bd d8 64 d5 3d f2 05 c2 be bc b0 67 be
       -0.070133574 0.10419625 -0.3789516 -0.22626013
000090 29 46 8b bd e4 b9 12 bc 1a a0 0c 3d 94 b0 a9 3d
       -0.06800491 -0.008955453 0.034332372 0.08285633
0000a0 7c 98 e3 bd fa bf 93 3d b2 be 1d be fe 94 00 3e
       -0.111130685 0.07214351 -0.15404776 0.12556836
0000b0 89 6e b6 3c 85 e7 b6 bb 56 69 72 3e 5b 8f 52 3d
       0.022269504 -0.0055817985 0.23672995 0.051406246
0000c0 84 33 5b bd 89 74 0b 3d 2c c1 86 3d 70 d7 f5 3d
       -0.053515926 0.034046683 0.06579813 0.12003982
0000d0 03 4a 07 3d 27 b8 00 bb b6 be a2 3e 3f ec cc bd
       0.033029567 -0.0019641013 0.31786126 -0.10005998
0000e0 91 49 78 3d 2b 69 89 bd 81 1e 3c 3e 14 10 84 bc
       0.060617033 -0.06709512 0.18371011 -0.016120948
0000f0 1d 16 0d bd 6c 87 37 3e 72 99 86 3d 7b e9 ef 3d
       -0.034444917 0.17922753 0.06572236 0.11714455
000100 dc 2a 36 3b b5 14 f2 3b a6 26 01 be 4d 99 38 3e
       0.0027796542 0.0073877224 -0.126124 0.1802723
000110 54 b4 26 bd 91 2a 12 bc bf 66 75 3e 02 b5 03 be
       -0.040699318 -0.008921281 0.23964976 -0.12862018
000120 07 e8 71 3d 53 9c 1e 3d 57 63 f0 be e1 98 bf 3d
       0.05905917 0.0387233 -0.4695079 0.09355331
000130 3b e0 58 be 88 c3 6a bd 1d 48 23 bd fd 4c cb 3d
       -0.21179287 -0.05731538 -0.039863694 0.09926794
000140 36 f6 81 be e6 02 da bc 3c 5b 79 3c 78 ea 17 3e
       -0.25383157 -0.02661271 0.015219506 0.14835536
000150 6e d6 07 3e 19 75 ba 3d 23 aa cd 3c 60 81 bf 3d
       0.13265392 0.09104366 0.025105542 0.09350848
000160 90 b8 28 be 73 6f b3 3d 98 ae cb 3d bf 98 2e 3e
       -0.16476655 0.087614916 0.099454105 0.17050456
000170 86 00 18 3e 24 ff 9e 3d 65 9f ec bc 47 43 7a 3d
       0.1484395 0.07763508 -0.028884599 0.061099317
000180 e9 17 c0 bc fa 11 05 3d f2 ac 22 3d 32 9f 14 3d
       -0.023448901 0.032487847 0.039715715 0.036284633
000190 8f ad 89 be ce f8 b2 3d ef 39 e5 3d 90 c3 13 bd
       -0.26890227 0.08738862 0.111926906 -0.036075175
0001a0 b6 f7 06 3e 4e df 48 be ed 28 08 3d 1d c9 fa 3c
       0.13180432 -0.19616434 0.033242155 0.030613476
0001b0 3e c1 19 3d a0 a0 c4 3d a3 07 60 3a 73 27 0d 3e
       0.037537806 0.09600949 0.000854606 0.1378458
0001c0 8b 34 ec 3d 55 aa f4 3d b6 db e9 3d a7 da 41 bd
       0.11533459 0.11946551 0.1141886 -0.047327664
0001d0 ab b4 a9 be 7f 72 47 3d fa 26 62 bd 10 47 a6 3d
       -0.3314565 0.048693176 -0.055212952 0.08119023
0001e0 56 96 22 be 4c 02 d3 bd 37 6e d2 3e b3 6d 92 ba
       -0.15877661 -0.103031725 0.41099712 -0.0011171609
0001f0 cb 93 97 bc fa 68 20 3d 66 69 0b be 11 9d a6 3b
       -0.01850309 0.039162613 -0.13614425 0.0050846417
000200 1a ba 17 3d 13 d5 be bc 16 95 dd 3d 10 63 b5 3d
       0.037042715 -0.023294961 0.108194515 0.08856785
000210 1b 9c d7 3d ce 0d 23 3e e7 1e 37 3e 9f 10 a9 3d
       0.10527822 0.15923235 0.17882882 0.08255123
000220 53 e7 06 3c dc 62 f9 3c 53 99 11 bc 22 f5 6d bd
       0.008233863 0.030442648 -0.008886653 -0.058095105
000230 2f cd 63 3d 76 4e 1a 3e 9b a5 81 3d 2c 0e 1a bd
       0.0556156 0.15068993 0.06330415 -0.03761117
000240 b7 da a0 3c db 96 64 3d ae 4e b8 bd 34 75 e0 3e
       0.019635541 0.05580793 -0.08999382 0.4383942
000250 24 f8 cf bd 8f 6b 08 3e b2 ab 91 3d 44 21 75 3d
       -0.10154751 0.1332228 0.071128264 0.059846178
000260 1e dc 0d 3d 14 58 68 be de 8e dc bb 86 62 be be
       0.03463375 -0.22689849 -0.0067308983 -0.37184542
000270 57 aa d0 3d 1a e7 1c 3d 78 d3 e9 bd 6e 1f bc 3d
       0.1018874 0.038306333 -0.114172876 0.09185682
000280 c0 8c dd bc d6 b0 8f 3d 97 03 57 be 85 d6 e4 bd
       -0.027044654 0.07016151 -0.20997463 -0.11173729
000290 4b 24 d4 bb 70 af 3f 3e d9 77 8e 3c 9a 14 cb 3d
       -0.006474053 0.18719268 0.017391132 0.09916039
0002a0 33 97 52 be 9a 03 62 bd 0a e6 0a 3d 01 29 06 3b
       -0.2056549 -0.055179216 0.03391079 0.0020471218
0002b0 5e b4 03 be 95 eb 67 bd 67 e4 3e 3e 4e 50 50 bd
       -0.12861773 -0.056621153 0.18641816 -0.050857835
0002c0 cb 8e 87 be e5 16 b9 bd fb 40 95 3d 01 d3 0c 3e
       -0.2647613 -0.0903757 0.07287785 0.13752367
0002d0 17 91 53 bd 0c 05 fb bc d5 97 42 3e fd 7c 24 be
       -0.05165204 -0.030642055 0.19003232 -0.16063304
0002e0 18 21 24 bc ed 02 a6 3c 96 26 09 3e 46 91 e1 3d
       -0.010017656 0.020265067 0.13393626 0.11014037
0002f0 95 d9 ca bc 12 32 f1 3d ac 8b a6 bc 56 80 0f bd
       -0.024761954 0.11777128 -0.020330273 -0.0350345
000300 1b 04 16 bd f4 4a af bd 25 ec 4b 3c 90 d3 99 bd
       -0.03662501 -0.08559218 0.012446438 -0.075110555
000310 80 38 d9 bd 02 bc 8a 3e aa 28 03 bf 68 9d 8b be
       -0.1060648 0.27096564 -0.51233923 -0.2726853
000320 a6 43 91 bd 98 b8 3c be 11 cd bd 3e d2 51 6d be
       -0.07092981 -0.18429792 0.37070516 -0.23175743
000330 f7 ca 4d 3e 9a db c4 bd 46 bb 35 3d 0e ec 8a 3f
       0.20096956 -0.09612198 0.04436805 1.0853288
000340 1e 21 1c 3f ff 18 30 be c4 1b c8 3d 73 ad 12 bf
       0.6098803 -0.17197035 0.09770921 -0.5729591
000350 dd 53 14 3e 73 c1 47 be a4 07 bd bc 87 6f 3a 3b
       0.14485116 -0.19507389 -0.023074932 0.0028447823
000360 83 92 fe 3e 56 ce ce 3d e2 e5 2f 3d 5a d7 2f 3e
       0.49721155 0.10097949 0.042943843 0.17171994
000370 b2 d7 1e be 20 38 bf 3c 10 7d 3a be 9e b9 31 bd
       -0.15511969 0.023342192 -0.1821177 -0.04338991
000380 65 e1 8e 3d a6 70 26 3d b4 9e 1e 3e bc ca 9a bc
       0.06976584 0.040634774 0.15490228 -0.0188955
000390 1c 87 d1 3e 5a f9 2f bc 29 41 4a be 04 6b c8 3d
       0.40923393 -0.010740602 -0.19751419 0.097860366
0003a0 79 f4 59 3e da 85 4e 3e a9 35 44 bd a6 db cd be
       0.21284665 0.20168248 -0.047902737 -0.4020664
0003b0 d7 95 51 3e be e9 e5 3d 87 71 42 3e 4a 06 31 be
       0.20467316 0.112262234 0.1898862 -0.17287555
0003c0 45 0b 90 be f9 15 87 3d 2c 27 ce bd a9 26 8b bd
       -0.28133598 0.06595988 -0.10066065 -0.06794483
0003d0 50 6c 7b bc 77 f7 0e bf 2d 2f 14 be 6e f4 8d bc
       -0.015345648 -0.5584635 -0.14471121 -0.017328467
0003e0 1c 18 c1 3e cd 4a ad 3e a9 29 ec bd 40 f1 11 be
       0.37713706 0.3384613 -0.115313835 -0.14252186
0003f0 0e 80 28 bf e5 83 04 3d 5d 3c 0b be a2 1e 42 3e
       -0.65820396 0.032352347 -0.13597246 0.18956998

network.network.2.bias f4 [64]
000000 4b a8 08 3e 2f 8f 20 3c 1a 4f ce bb 29 2f 5c bd
       0.13345449 0.009799763 -0.0062960507 -0.053755913
000010 47 26 a7 bd e2 29 28 3e f8 84 b9 bc 36 fa ea bd
       -0.08161598 0.16422227 -0.022646412 -0.11473505
000020 85 03 e5 3d 5b f1 a8 3d f0 c4 0d 3d 33 47 a8 bd
       0.11182312 0.0824916 0.034611642 -0.08216705
000030 50 ab 09 bc c4 c6 bc bd c6 9b d7 bc 88 d9 bf 3d
       -0.0084026605 -0.09217599 -0.026319396 0.09367663
000040 0b 54 31 3b 51 19 b4 3d 0d 0f eb bd f5 a1 bc 3d
       0.002705815 0.08793891 -0.1147748 0.09210578
000050 ec d7 8a 3c 05 de 27 bd 05 f9 10 bc d6 30 e7 bd
       0.016948663 -0.04098322 -0.008848433 -0.112886116
000060 f1 d6 38 3d 46 b3 75 3d 92 eb df bc 5f 0d a5 3d
       0.04512686 0.05998542 -0.027334008 0.08059191
000070 92 17 50 bc 7d c7 e1 bd 4c b4 38 3e 68 c5 02 be
       -0.012700932 -0.110243775 0.18037528 -0.12770617
000080 0d a5 9c 3c ae e5 d3 bd 12 e5 0e 3e bb e0 ef bd
       0.019121671 -0.10346542 0.13954571 -0.11712786
000090 ab 7b 55 3c dd 78 8f bd a9 82 9f 3c 9e bf 28 3a
       0.013029973 -0.07005475 0.019471483 0.00064372446
0000a0 84 ba 1a be bb c0 75 3d 66 e5 25 3e 7d df b0 3c
       -0.15110213 0.059998255 0.1620079 0.021590943
0000b0 49 c5 fb 3d 44 88 8f 3d e5 d5 be 3c 2e 2c 3f bd
       0.122934885 0.070084125 0.023295352 -0.046672992
0000c0 a2 e3 3e bd 3a 04 a2 bc 53 aa 8a 3c 5d df 26 3e
       -0.046603806 -0.019777406 0.01692692 0.16296144
0000d0 de 6d 9b bd 6c d0 32 ba cd 7d 37 bd ae 25 87 bd
       -0.07589315 -0.00068212184 -0.044797707 -0.06598984
0000e0 e0 c5 74 bd 42 d4 16 3e ed 2c bd bc bd 9f 16 3d
       -0.05975902 0.14729407 -0.023092711 0.036773432
0000f0 83 66 e6 bd 10 d1 c3 bd b4 65 df 3d fb 95 17 3c
       -0.11250021 -0.0956136 0.1090807 0.009252067

network.network.4.weight f4 [2, 64]
000000 5d 7d 2d 3e 4e f1 59 bd 46 72 02 3e 9b 68 dd be
       0.16942354 -0.05320864 0.12738904 -0.4324387
000010 9c 62 10 bf 2a ae df bc 69 d6 e7 3e dd 69 da 3d
       -0.56400466 -0.027304728 0.4528077 0.10664723
000020 3d e3 50 bd 2e 5e cc 3d 70 38 d4 3d d7 dc 23 3e
       -0.05099796 0.09978901 0.10362327 0.16002212
000030 03 59 a7 3d 32 1e d0 3d c5 2b 7f bc 85 24 3a 3e
       0.081712745 0.10162009 -0.0155744 0.18177994
000040 83 82 b0 bd 13 fd 02 3d 3c 98 97 3d 6d 64 e6 bd
       -0.08618643 0.03197963 0.07402083 -0.112496234
000050 ff 8d 3b 3d 5b 9e 87 3e f3 18 92 3c 99 60 a4 3d
       0.045789715 0.26488003 0.017834162 0.08026237
000060 d3 8e 78 bd 37 0d f6 3d fa be 82 3d 27 66 49 be
       -0.060683083 0.12014239 0.06384082 -0.19667874
000070 c3 f7 94 3e 53 96 c6 bd d9 61 be 3d d4 3b 0a be
       0.29095277 -0.09696641 0.09296007 -0.13499385
000080 ed f2 d7 3d 6c 24 1d be 68 ba 29 be 28 2b c9 39
       0.10544381 -0.15345925 -0.16575015 0.0003836986
000090 65 26 1a bf 23 fb b5 3e c5 48 cd bd 99 e7 4c 3e
       -0.60214835 0.35543165 -0.10023645 0.20010222
0000a0 be 87 29 3d 49 08 1a be 08 c2 12 3e 7e c0 2b 3d
       0.04138922 -0.15042223 0.1433183 0.04193162
0000b0 f5 89 4c 3f e0 53 74 be 79 a1 d1 bd 23 19 f7 3d
       0.79898006 -0.23860121 -0.102358766 0.12065341
0000c0 7e ea bb bd 68 c9 70 3e 27 13 5e bd 97 d7 a5 bb
       -0.09175585 0.2351433 -0.054217484 -0.0050611007
0000d0 2b 25 00 bd 4b 4f 29 3e ca 5c 1a 3e 5a 1f 52 be
       -0.031285446 0.16534154 0.15074459 -0.20519772
0000e0 1c 3f 22 3d b1 a2 69 bd ba 88 a2 3c 74 70 6b be
       0.039610967 -0.05703992 0.019840587 -0.22992116
0000f0 af 9e 53 be f6 2d c8 be 66 90 c5 3d 88 d8 3b be
       -0.20666002 -0.39097565 0.096466824 -0.18344319
000100 0e 9c 7d 3d f7 6b 11 be 3c 51 5d 3d 00 b9 2f 3e
       0.061916403 -0.14201342 0.05403255 0.17160416
000110 a6 18 20 bf 95 6e 3a 3e ae 34 82 3e 10 d5 11 3e
       -0.6253761 0.18206246 0.25430816 0.14241433
000120 c8 81 3c be 70 92 12 be d6 8e c0 bd 2b 4d a9 be
       -0.18408883 -0.14313674 -0.09402244 -0.33066687
000130 eb 43 bc bc 6e 42 08 3e 6d 18 16 be 06 42 17 3e
       -0.022981605 0.13306591 -0.14657755 0.1477128
000140 f7 cd 34 3c de a5 f1 bb 7c 9d c3 bd b7 44 c1 3d
       0.011035434 -0.0073745092 -0.09551522 0.094369344
000150 c8 76 41 be 9b bb 4d be 10 b3 2b 3e 2d b2 0e 3d
       -0.18892968 -0.20091097 0.16767526 0.03483789
000160 01 2f 0a be b2 a9 ed bd b4 43 37 be 1e 8d f0 bc
       -0.13494493 -0.116046324 -0.1789692 -0.029364165
000170 f8 b0 a9 be be 61 f5 bc ae 59 c3 bd 6e cd db bd
       -0.3314283 -0.029953834 -0.095385894 -0.10732542
000180 cd 3f cc 3d 83 de 34 3e e6 6c b6 3d 71 e0 53 3c
       0.099731065 0.17663006 0.089074895 0.012931929
000190 66 b4 0e bf 12 c3 1d 3d 59 89 78 3d 54 cf 39 3e
       -0.55744016 0.03851611 0.06067786 0.18145496
0001a0 23 53 d1 3d 74 58 03 be 65 27 00 3e 7a bf a2 3e
       0.10220935 -0.12826711 0.12515028 0.3178671
0001b0 16 7e 79 be db 73 1e 3e 01 d2 37 3e b4 2d 6a 3e
       -0.24364504 0.15473883 0.17951204 0.22868997
0001c0 55 ef cd bc 0c 98 6b 3e cd 09 1b 3e 63 93 23 3e
       -0.025138536 0.2300722 0.15140457 0.15974192
0001d0 29 40 77 3d 78 d1 e1 3c f6 15 8b 3e 88 31 f7 bd
       0.060363922 0.027565703 0.27165192 -0.12069994
0001e0 c0 d0 10 bc 48 a0 05 3e 66 df 09 bc 6b 67 db be
       -0.008838832 0.13049424 -0.008415079 -0.4285234
0001f0 1a e2 66 be d6 fd 1c 3e f5 bb d0 3d 40 d8 31 3f
       -0.22547188 0.15331206 0.101921 0.69470596

network.network.4.bias f4 [2]
000000 fe 83 be bd 33 87 c9 3d
       -0.09302519 0.0984024
